coll_avo/output/attention_rl/imitationlearning_model.pth (torch_old, 348974 bytes, 20 tensors)

mlp1.0.weight f4 [150, 13]
00000000: d047 22be 8a6b 61bd d9db a83d 9d81 80be
00000010: 9614 0bbd 17b5 e4bd 7b90 463e dcd5 9a3d
00000020: b35c 783a ae88 5a3e 2ed4 4a3e 2bdc 86bd
00000030: 0982 483e 351f 8bbe 7ad0 393e a527 f93d
00000040: 7291 5a3c 6c4a b9bd 1338 3c3e e234 7c3e
00000050: 0dac 3ebe 6280 013e 651e 8f3e 9464 a8bd
00000060: fe9b a23d e0e5 2d3e 03b2 0dbc c205 e7bd
00000070: d153 3a3e 8538 413d 0d81 433d 81c9 d13d
00000080: f2fb e63d 79ef 0a3d 0476 833e 12aa f33d
00000090: 63ca ec3d 3e0d 033e fdd0 933d d8a7 3c3e
000000a0: 8153 81be 61bd 53be 3460 613e 4bce 293e
000000b0: 6df0 893e edf0 673b 6f3e 823e 8930 ca3d
000000c0: d1d3 61be 8472 84be 9356 3e3d 27ed 0ebe
000000d0: 0c1a 30be 7b6d 89be 550e 80bd d8d0 6d3e
000000e0: a727 65be 09cf 25be 19da b73c 02f3 833e
000000f0: f5ff d1bd 9786 89bc 9e72 80be ec60 79be
00000100: 0ec5 7dbd 8e4c 2a3d 6757 383e b160 7dbe
00000110: 5ff9 793e 81e4 1ebe f0d6 7b3e d11e 903e
00000120: 9ec9 a53d 328c 823e 0240 003e e5ea dfbd
00000130: dcef 07be 937d 84be c46a ee3d 2e0a 13be
00000140: 2148 983c f6ca 7bbe 9bd9 61be 03c0 543d
00000150: 81da c9bd b8fd 923e fc5b a5be c2e5 7c3c
00000160: f0ed bfbd b557 813d cb74 30be dd92 1a3e
00000170: 60f0 8e3d 1168 a73d ba5c 963d f971 203e
00000180: 93c0 cbbd ff2e be3c b5dc c83d 2d1a 45bd
00000190: 75a1 a13e e425 383d 1bc9 28be dc50 87bd
000001a0: ee9e 353d c558 92bd cb6d fcbd afc3 953d
000001b0: 06af 8cbb b9a8 0bbe 93c6 bb3d dead 003a
000001c0: d710 073e d415 ab3e 8d78 5d3e ba03 d73d
000001d0: c80a 3cbe 8045 c0bb 0069 c7bd 07d1 9bbd
000001e0: a534 88be 9b22 6cbe 823c e7bc 6410 7dbd
000001f0: 413e 2c3e 6e9b 81be b436 a7bd 2386 47be
00000200: 1833 67be 9d8f 7f3d 8355 d83d fc80 cd3d
00000210: 1015 5dbd 9b40 5b3e 9b54 7fbe c9b9 04bb
00000220: c8c4 17be 5145 84bc 616b b2be 0e04 2dbe
00000230: 9f3a 933e ccec 29be 30ec 183e 2bfc 8cbe
00000240: d839 32be c731 a23d a73a e7bd c23f f53d
00000250: e602 60be 29ae 6c3d 5803 a8bd b2b6 9b3b
00000260: 2624 933d 9226 a6bd e1ff fe3d fb03 133e
00000270: 7e47 c33d cbda 5d3e e01e 5cbe 150a 80bc
00000280: 9886 32be 4352 f5bd 7b6d 4ebe b510 e83d
00000290: 8e42 843d 4472 e43e 363e 97be a4ba 013e
000002a0: 1513 ff3c 93c5 e43d 011c b73c 00ce cd3c
000002b0: c4c8 803d 0f47 0f3e f62f 59be 5300 87bc
000002c0: 9adc a3be 92ae 21be b6e5 96be 60d4 113e
000002d0: 9482 32be 332b 813d d5bd b3b9 27cc 7dbe
000002e0: f96f 7ebe fe3c 5dbe c91e 533e 2548 ef3d
000002f0: 643d 5ab9 155e 523d c2af 063e be9a 7ebe
00000300: adaa 593e 9d8e 5a3e 1330 56be 9a8a b9bc
00000310: c321 8a3d 1519 083e fa1d 2fbe c73f 4fbe
00000320: bb1d 68bd c80e 353e f98b b93a e2c8 91bd
00000330: 606b a53e b137 e23d 3535 2a3e 38ef 9dbe
00000340: 9029 44be f0df 243d 2eb8 fe3d 7a56 1f3e
00000350: 54f2 8fbd 9756 8c3d 9a43 b93c 8a32 c9bd
00000360: b6a3 373e d52a 2ebc bdbe 123e 926e 1d3e
00000370: ea5e 71be 442b 003e d9ca 6c3e b95b e9bd
00000380: b928 623d 461b eabd ba3c 223d 47d7 c93d
00000390: c3a2 10bd b93c b6bc 8174 103e 2f9c 70be
000003a0: 5b0e 96be a596 50be 9bb4 b53c 3abc 743d
000003b0: 4334 af3d 5805 12be cd1a 853e 6a28 3a3e
000003c0: bf07 30be 9bb7 0b3e 320c 623e 7fe4 463c
000003d0: a50c ca3d c275 6cbe 1482 1bbe 3a02 febd
000003e0: 639d 3a3e c1c5 10bd 4573 313e 291d 323e
000003f0: 5e7d 2ebe 1e77 923d 68b1 8dbe de43 4ebe
-0.15847707 -0.055034198 0.082450576 -0.25098887 -0.03395518 -0.11167353 0.19391052 0.07560322
0.00094742625 0.21341202 0.19807503 -0.065849625 0.19580854 -0.27172247 0.18145934 0.12165765
0.013340341 -0.09047398 0.18380766 0.24629548 -0.1862032 0.1264663 0.27952877 -0.08222309
0.079399094 0.16982222 -0.008648398 -0.11280395 0.18196036 0.04717304 0.047730494 0.10243512
0.112785235 0.033919785 0.25675976 0.11897673 0.1156204 0.1279802 0.07217596 0.18423402
-0.2525902 -0.20677711 0.22009355 0.16582601 0.26941243 0.0035391406 0.25438258 0.098725386
-0.22053458 -0.25868618 0.046469282 -0.13957654 -0.17197436 -0.2684134 -0.062527336 0.23224199
-0.22378407 -0.16192259 0.022442864 0.25771338 -0.10253898 -0.01678781 -0.25087446 -0.24353379
-0.061955504 0.041576914 0.18002091 -0.24743916 0.24411534 -0.15516855 0.24593711 0.2814851
0.08095096 0.25497586 0.12524417 -0.109334745 -0.13275093 -0.25877056 0.11641458 -0.14359352
0.018589081 -0.24589142 -0.22055666 0.05194093 -0.098561294 0.28709197 -0.3229674 0.015435638
-0.09371555 0.06315557 -0.17232053 0.15095086 0.06979442 0.08174146 0.07341905 0.15668477
-0.0994884 0.023215769 0.098077215 -0.048120666 0.31568494 0.04495801 -0.16482966 -0.066072196
0.04434102 -0.07145838 -0.12325629 0.07312714 -0.0042933254 -0.13638581 0.091687344 0.0004908721
0.13190018 0.3341509 0.21628018 0.10498758 -0.18363488 -0.00586766 -0.09736824 -0.07608228
-0.26602665 -0.23060076 -0.028227095 -0.06178321 0.16820623 -0.25313896 -0.08164731 -0.19484763
-0.22578084 0.06239282 0.10563185 0.100343674 -0.053975165 0.21411364 -0.24934618 -0.0020252338
-0.1482116 -0.016146334 -0.3484755 -0.16896078 0.28755662 -0.16594237 0.14933848 -0.2753614
-0.17404878 0.079196505 -0.11290484 0.119750515 -0.21876106 0.05778328 -0.08203763 0.0047520036
0.07184629 -0.081128255 0.12451149 0.14356987 0.095351204 0.21665494 -0.21496153 -0.015629807
-0.17434156 -0.11978581 -0.20158951 0.113313116 0.06458007 0.44618428 -0.2953965 0.12668854
0.031137029 0.11170497 0.02235222 0.025122643 0.06288293 0.1399195 -0.21209702 -0.016479647
-0.32004243 -0.1578925 -0.2947213 0.14241171 -0.17432624 0.06307068 -0.00034282976 -0.24784909
-0.24847402 -0.21605298 0.20617212 0.11683682 -0.0002081297 0.051359255 0.13152984 -0.24863717
0.21256514 0.21343465 -0.20916776 -0.022649098 0.06744721 0.13290818 -0.17101279 -0.20239173
-0.05666898 0.1768142 0.0014156095 -0.071183935 0.32308483 0.110457785 0.1662186 -0.30846572
-0.1915648 0.040252626 0.12437473 0.15560332 -0.07028642 0.06852453 0.022615243 -0.09824093
0.17933545 -0.010630329 0.14330573 0.1537421 -0.23571363 0.12516505 0.23124255 -0.11394448
0.055214617 -0.11430983 0.039608695 0.09855514 -0.03531147 -0.022245752 0.14106943 -0.2349708
-0.29307827 -0.20369966 0.022180846 0.05974982 0.0855489 -0.14259851 0.2599701 0.18179479
-0.17190455 0.13644259 0.22074965 0.012139439 0.09865693 -0.23091796 -0.1518634 -0.124027684
0.18224101 -0.035344843 0.17329128 0.17393936 -0.17040011 0.07151626 -0.27674413 -0.20143077

mlp1.0.bias f4 [150]
00000000: 2388 843d aace dd3d b7ef 7a3d ec71 4cbe
00000010: 2515 3e3e 7d8a f83d 6d8f 4c3d 1f87 93bd
00000020: fefe 213e 84bd c6bd ca43 e33d 6a98 b7bd
00000030: 2942 883c 039f 123e 6bb9 3cbe 2d1f 633e
00000040: edff a13d 81b8 7b3e 0d00 883d 5606 3b3e
00000050: 5ee9 273d 6c4b c43d df6e 3c3d 6f5d 9d3d
00000060: 28ac c23d 1f8f 41be cdaa 47be f1e2 4c3e
00000070: fd22 44be c2c7 3fbd 78b2 aabd d4da 88be
00000080: 07d3 8dbe 4265 b13d 6aa6 d03d 4279 03be
00000090: dd77 893e b737 de3d a7d6 03be e63e a9bd
000000a0: 170c f83d f4b0 013e 19ff 91bd 7e00 47bd
000000b0: 0af0 2bbe 7148 83be 8815 19be 17a2 403e
000000c0: a231 043e 3a63 fe3d cda2 043e 6293 2abe
000000d0: 71e2 6bbe 2ba9 743e 7ae8 9abd 171e 1b3e
000000e0: 4c52 09bd 53fc d63d f96a e13d be83 75be
000000f0: 16ad 81be 4e5b 11be be8a 8d3e e84c 603e
00000100: 7461 38be 6fb5 523d 1158 363e c3d0 c7bd
00000110: 697c cc3a 0ffb 273e 10b5 2abc ef69 2b3e
00000120: 524c 5c3e 7548 42be e111 87bc 0b2f 0c3e
00000130: 5281 613e 89b4 93be 71d1 4a3e 850b 74be
00000140: 9a15 053e 363a 24be 479c 9c3c 085a 8abe
00000150: 77b5 1dbe 00ee 453e bc25 5ebe 8772 0a3d
00000160: a7a1 613e 36a4 e13d 5f2a 49be 1fef 063e
00000170: 5714 8b3e cda7 213e 4b69 51be a3ac 8a3e
00000180: 9b33 75be c4d6 84be b079 fa3b a829 86bd
00000190: 3010 c4bd 66bc 88be 5e31 963e 0646 593d
000001a0: 58fc ae3d 5c26 66be 3338 8e3d c882 fbbd
000001b0: c18c 443e 9a47 63bd faf8 453d 69b4 823e
000001c0: c9a5 ff3c bf51 61be 921d f3bd 5854 d0bd
000001d0: 8d17 1bbe 21a9 52be ba8c 973d b5ad 573e
000001e0: bc3f 453d 29f0 523e 79eb 8abe afc7 70be
000001f0: 45bd 3a3e e1d8 8a3e 550d eabd a75d aabd
00000200: 39ad 8b3e 8b0f d03d d732 20be ff16 663e
00000210: b39d e4bd 6714 b7bd a6f4 31bd c373 81be
00000220: 240e 463e e815 b5bd 7b3c ff3d da6f 543e
00000230: 88e0 37be 7099 783d 91bd 0c3e 3050 393e
00000240: 4914 0bbe cfce 73be b6ee 70bd 5140 5ebe
00000250: 183f 2a3e 71f1 553e
0.064712785 0.10830434 0.061263766 -0.19965333 0.18562753 0.121357895 0.04994147 -0.07203507
0.15819928 -0.09704116 0.11096914 -0.089646176 0.01663311 0.1431847 -0.18430106 0.22179861
0.07910142 0.24582101 0.06640635 0.18264136 0.04099404 0.09584698 0.046004172 0.07683837
0.095054924 -0.18902253 -0.19498749 0.20008446 -0.19153972 -0.046821363 -0.083348215 -0.26729453
-0.27700064 0.086618915 0.10187991 -0.12839225 0.2684926 0.108504705 -0.12874852 -0.0826395
0.12111681 0.12665159 -0.07128734 -0.048584454 -0.16790786 -0.25641206 -0.1494962 0.18811832
0.12909558 0.1242127 0.12952729 -0.16657785 -0.230356 0.23892657 -0.07563873 0.15148197
-0.03352575 0.10497346 0.110067315 -0.23976037 -0.25327367 -0.14194986 0.27644914 0.21904337
-0.18005925 0.05144256 0.17807032 -0.09756615 0.0015601042 0.16404365 -0.010419145 0.16739629
0.21513489 -0.18972953 -0.016488018 0.1368982 0.22021988 -0.28848675 0.19806458 -0.2383252
0.12996522 -0.1603783 0.019117488 -0.27021813 -0.15401255 0.19329071 -0.21694082 0.033800628
0.22034322 0.11017649 -0.1964507 0.13177155 0.27163956 0.15786667 -0.20450322 0.27084836
-0.23945467 -0.25945103 0.007643901 -0.06550914 -0.095734 -0.26706237 0.2933454 0.053045295
0.085442245 -0.2247557 0.06944313 -0.12280804 0.19194318 -0.055488206 0.048333146 0.25528267
0.031206982 -0.2200384 -0.118708745 -0.10172337 -0.15145703 -0.2057233 0.07399888 0.21062358
0.048156485 0.20599426 -0.27132776 -0.23513673 0.18236263 0.2711859 -0.11428324 -0.08318644
0.27280596 0.101592146 -0.15644394 0.2246971 -0.11162891 -0.08939438 -0.043446206 -0.25283632
0.19341332 -0.08842069 0.124627076 0.20745793 -0.17956746 0.060693204 0.13744189 0.18096995
-0.13581957 -0.2380936 -0.058821402 -0.21704222 0.16625631 0.20892884

mlp1.2.weight f4 [100, 150]
00000000: d4b3 bb3c 73fc 18bd e491 173c fb26 6fbd
00000010: fe4e aebc 7a33 543c 62c6 86bd c1df 0fbd
00000020: 0db9 693d ca4c 8abc be92 e03c fa76 49bd
00000030: 08b0 bf3d 59a0 bcbd 02ac a83c dc4b 76bd
00000040: 934a e73c 7251 e03c 730d 91bd 8ccf 61bd
00000050: 7153 1abd 79a6 873d 12bf 043c 01a7 ef3b
00000060: 3065 8b3c 3a6b 903c da85 31bb aceb 3bbd
00000070: f36a 8a3d 2c3b 4b3d 43f3 27bd f9f2 5bbc
00000080: a53c 05bd 0bb6 08bd 0da3 03bd 0c8c 5d3d
00000090: 3911 0a3c 618d 0b3d f1b2 64bd ba5e 823d
000000a0: c346 763c 1c10 69bb 6b27 a2bd fe03 93bd
000000b0: a4a4 c6bd fa1b 5b3d c877 cdba b8fc ac3d
000000c0: e4b1 adbc a156 a5bd e948 b33d 5e13 31bd
000000d0: f51f 35bd 719c 74bd 34ff babc 272c 87bd
000000e0: c9c8 dd3c 2faf a7bd 8eac 203d 47a0 c6bd
000000f0: 9477 943b 37b3 c53c ed88 023c 69ee 243d
00000100: 7cad f93b bcb1 a23d 5e6a 963c ee85 0c3d
00000110: 730a 62bd cf00 9bbd d61f a13d 0b2f 9abd
00000120: 066e 54bd 5f82 4b3d 69a9 f43c a72b 9a3d
00000130: de9c 65bd bbe8 1b3d 1e63 00bd f46e aa3c
00000140: fdeb b0bd 1dfb de3c 9987 013d 0d5c 7cbd
00000150: f174 bebc 91dc 6b3d f56b 38bd 6a77 91bd
00000160: 5e84 653d 979a 7a3c 9d4c 943c 7417 70ba
00000170: ca1c 3a3d a6dd 4b3d 19fe 9fbc b553 df3c
00000180: baf4 813c 87a8 d6bc 470b 5c3d 0631 93bd
00000190: 0e70 223d 2de8 953c b45e dcbb 185e 123d
000001a0: e10f 613d f7cf 3a3d e528 953d 0199 333d
000001b0: 0acb d93c 5806 31bd 150e c93d cec9 893c
000001c0: 176e 37bd 04a9 42bc c7c7 943d 9433 7e3d
000001d0: 3dfc d23b 7a6b 15bc ca88 843d 248a 46bd
000001e0: 9165 e5bc 3aa5 db3d 7f49 c23c db6a a93d
000001f0: 09e5 5dbd b92a 7dbd 38d7 a63d 2af9 02bd
00000200: ba28 3c3c b3ea 72bc 216d c33d a3d5 313a
00000210: d4d6 14bd 3c08 9b3d 0f2b 46bd 7162 743d
00000220: d326 db3c 0182 013d c78a 073b 06d7 98bd
00000230: b43c e8bc 1ad0 7e3c c63d 433d e3c2 9ebd
00000240: 3a30 3fbd 1a07 283d 3c37 2e3d 4966 5d3d
00000250: 8255 3b3c d494 ddbd 50e6 1c3d 055e c53d
00000260: da93 953d cbef c4bb e0fb 853d 34e3 4dbd
00000270: 3ee6 8e3d 0696 e83c 10f2 a03b 8a85 6d3d
00000280: 028a a2bd f362 34bc 6bbe 35bd c20a e2bd
00000290: 936d 413c 3e37 293d 6381 0e3c 298a 563d
000002a0: 3083 97bd 4b9a 53bd 604a 9d3d 5d46 3abd
000002b0: 6821 a83d 65a6 35bd 2035 963d ff8e b7bc
000002c0: 292a 153d d708 05bd 3a22 473d e446 063d
000002d0: 30f6 043d b723 a4bd b9e2 e1bc bc6b 88bd
000002e0: 8e2a 3d3d 1459 f23b d0e9 a53d ee61 5cbd
000002f0: 3db8 603d f776 523d b94d 9c3d 1c39 84bd
00000300: 65b2 8a3d 8cd7 1e3d 1874 47bd d745 23bd
00000310: e87d 033c d30c b53d 117a 34bd 0ee6 4dbd
00000320: 442e 913d 5f82 223d 2cd9 703d d7cc 9bbd
00000330: 9fcb 7a3d bec9 1abd 316c a93d 2d7a 023d
00000340: ca9d 65bd e87b 4a3d 0447 013d c2e6 83bd
00000350: d88a 36bd b739 8dbd 3f5a 0ebc 7133 c03d
00000360: 16e1 1fbd 53e7 f43c 60ce 18bc f534 54bb
00000370: 2a12 ee3c ab10 723d 3071 8bbd 938e 87bb
00000380: 3fa6 343d 8785 8f3d 3932 383d 3200 f23d
00000390: 9ef9 5dbd c3c8 0b3d d9d2 8f3d 25da 71bd
000003a0: 13bd 153c f6da 4abd 69fe 5f3d 548d 6f3d
000003b0: 1aa7 813d f837 d7bc eaee ac3d fbcb 893d
000003c0: 5006 8a3d 6c98 1dbd 9a9d 7ebd a86a 9d3c
000003d0: 7da7 86bd 1cd8 3abd ea49 dbbc 1df7 2fbc
000003e0: 6060 b63d 6cf4 79bd 5b7b 273d c168 883d
000003f0: 28c7 2abd 618b 943d 4629 703d 1cc8 7e3d
0.022912897 -0.03735013 0.009251092 -0.058386784 -0.0212779 0.012951726 -0.06580807 -0.035125498
0.057061244 -0.016882319 0.027413722 -0.04918573 0.09359747 -0.092102714 0.020589832 -0.06013094
0.028233802 0.027382586 -0.07082643 -0.055129573 -0.037677232 0.06623549 0.008102195 0.0073136096
0.017016023 0.017629255 -0.0027087838 -0.04587905 0.0675868 0.049616978 -0.041003477 -0.013424628
-0.03252854 -0.033376735 -0.03213792 0.054088637 0.008426958 0.034070376 -0.055834714 0.06365724
0.015031519 -0.003556258 -0.07917675 -0.07178496 -0.096993715 0.053493477 -0.0015675956 0.0844664
-0.021202989 -0.08073164 0.08754141 -0.04323136 -0.04421993 -0.059719507 -0.022826768 -0.06600218
0.02707328 -0.081877105 0.03922706 -0.09698539 0.0045308564 0.024133308 0.007967216 0.04026643
0.007619558 0.079440564 0.018361267 0.034307413 -0.055185746 -0.075685136 0.078674 -0.07528504
-0.05186274 0.04968488 0.029865937 0.07527857 -0.056057803 0.038063746 -0.031344526 0.02080486
-0.08638761 0.02721935 0.031623457 -0.061611224 -0.023249121 0.057583395 -0.04502483 -0.071028545
0.05603444 0.015295646 0.018102938 -0.0009158768 0.04543761 0.049771927 -0.019530343 0.027261594
0.015863765 -0.026203407 0.053721692 -0.07187085 0.039657645 0.018299187 -0.0067251567 0.035734266
0.054946784 0.045608487 0.07283191 0.043847088 0.026586074 -0.04321894 0.09817139 0.01681986
-0.044782724 -0.011881117 0.07264667 0.062060907 0.0064387606 -0.009119863 0.06471403 -0.048471585
-0.028002532 0.10724874 0.023716686 0.08272334 -0.054173503 -0.06180832 0.081465185 -0.031975903
0.011484319 -0.0148264645 0.09542299 0.00067838485 -0.03633769 0.0756993 -0.048380908 0.059664194
0.026751911 0.031618122 0.0020682083 -0.074628875 -0.028349258 0.015552545 0.047666334 -0.077520154
-0.04667685 0.041022398 0.042533144 0.054052625 0.011433961 -0.10819402 0.03830558 0.096370734
0.07303591 -0.006010031 0.06542182 -0.050265506 0.06977509 0.02839185 0.0049116686 0.05798868
-0.07936479 -0.011009919 -0.04437105 -0.11037208 0.01180591 0.04131245 0.00869784 0.052377854
-0.07398069 -0.051660817 0.076802015 -0.04547726 0.08209497 -0.04434814 0.073343515 -0.022407053
0.03641716 -0.032479133 0.048616625 0.03278245 0.032461345 -0.080146246 -0.02757393 -0.06661174
0.04618316 0.007395873 0.08101237 -0.05380433 0.054863203 0.051382985 0.07632012 -0.06456205
0.06772307 0.03877978 -0.0486947 -0.039861526 0.008025624 0.08840337 -0.044061724 -0.050268225
0.070889026 0.039675113 0.05880086 -0.076074295 0.061229344 -0.037790053 0.08272589 0.031854797
-0.056058683 0.049434572 0.031561866 -0.06440498 -0.044566005 -0.06895774 -0.0086885085 0.09384812
-0.039033018 0.02989546 -0.009326547 -0.0032380198 0.029061396 0.059097927 -0.06808698 -0.004136869
0.044103857 0.0700789 0.04496977 0.118164435 -0.05419313 0.03412701 0.07022638 -0.05904593
0.009139317 -0.049525224 0.054685984 0.05848439 0.063307 -0.026271805 0.08444007 0.06728359
0.06739485 -0.03847544 -0.06216202 0.019215897 -0.065749146 -0.045616254 -0.026768643 -0.010740069
0.08905101 -0.061024114 0.040889125 0.06660605 -0.041693836 0.07253147 0.05863311 0.062202558

mlp1.2.bias f4 [100]
00000000: e36c 5b3d 2e00 4abd 8044 a5bd 27e7 173c
00000010: 55ed 553c fa71 a6bc 221d 60bd 5b99 93bd
00000020: a3b4 50bd fe01 913b 57b5 96bd 3bcd 9fbb
00000030: 12b6 babd f6c4 2f3c cb77 18bd ae1b aa3d
00000040: 6f39 84bd 2eac e6bd e44a b9bd 8ac8 6fbb
00000050: abd5 1d3d 4965 c2bd 6f8e 10bd f43b 13bd
00000060: 902d b23c 8518 95bc 6234 773d 6f59 0f3c
00000070: c519 873d 0840 29bc 590c 953d fadc bf3d
00000080: c042 863c c3d8 c83d 70c9 933d a50c 98bd
00000090: 6917 03bd 41d8 11bd 0b23 84bd af39 08bd
000000a0: db5c 2c3c 10f6 5c3d a11b 87bd 6cf3 78bd
000000b0: 500a 1a3d 9ba0 4bbd dc5f ad3d d676 6f3d
000000c0: d237 57bc 1347 38bd 7d4a 063c 1d53 79bd
000000d0: 346f 14bd e0ea 12bd 81af 2dbb 46b9 dabc
000000e0: ff0e ccbc 41e1 2d3d 0d2c 863d b7c8 72bd
000000f0: 6269 eabd cf29 383d 9df0 ebbb d35d 783d
00000100: 6187 ebbc 6337 a53d 44f6 88bc d422 283c
00000110: 30bb 88bd 3dfc 06bb 2578 4fbc 19d8 7a3d
00000120: 6dd8 19bc 0fd0 8cbd 1420 38bd 6512 d03c
00000130: e885 6c3c 4b68 72bb a35b 8bbd db6f 6cbc
00000140: 3e9f 8d3d 9f64 5c3d 69db f0bc 01d4 853d
00000150: 6259 943d 7c09 623d d73f 733d 38fb 90bc
00000160: a71d 68bd 0c06 7abd 87d3 473c 05cb 973d
00000170: d83c f83c c6f5 a9bc a055 8c3d 6c4e 9abd
00000180: 174b d13c af45 0c3d 4f0a 70bd 205f c33d
0.05357064 -0.049316578 -0.08069706 0.00927142 0.013057073 -0.02031802 -0.054715283 -0.072069846
-0.05095352 0.0044252863 -0.073588066 -0.0048767603 -0.091167584 0.0107281115 -0.03722362 0.08306061
-0.06456267 -0.112633094 -0.090474874 -0.0036588036 0.038533848 -0.09491975 -0.035292085 -0.035945848
0.021750242 -0.018200168 0.06035269 0.00874935 0.06596712 -0.010330208 0.07277746 0.0936832
0.01638925 0.09806969 0.072161555 -0.07424287 -0.032004748 -0.035606626 -0.064519964 -0.033258136
0.010520185 0.0539456 -0.06597067 -0.06077902 0.03760749 -0.049713712 0.08465549 0.05846294
-0.013135867 -0.044989657 0.00819647 -0.06087028 -0.036238864 -0.035868526 -0.0026502314 -0.026699673
-0.024909494 0.042451147 0.06551371 -0.059273448 -0.114458814 0.044961747 -0.007200314 0.060636353
-0.028751077 0.08067205 -0.016718991 0.01026221 -0.06676328 -0.0020597123 -0.012662922 0.061241243
-0.009389979 -0.068756215 -0.044952467 0.025399396 0.014436223 -0.0036988433 -0.06804588 -0.014430965
0.06915139 0.053806897 -0.029401498 0.06534577 0.07243611 0.055184826 0.059387054 -0.017697915
-0.056668904 -0.061040923 0.012196428 0.0741177 0.03030245 -0.020747077 0.06852269 -0.07534489
0.025548501 0.034246143 -0.05860358 0.09539628

mlp2.0.weight f4 [100, 100]
00000000: 31f0 bdbd eda0 eebc da52 1e3d 8a4c 99bd
00000010: 2bea a53d d3e8 873c 2682 3abd dec4 b23c
00000020: 8af7 773d 22b7 303d 88da b43d 5868 bc3c
00000030: 237a ee3c 21a1 76bd b55b 9a3c 7fc2 a8bd
00000040: 4e03 293d 509d cf3d 2a2c 893d db5e 8a3d
00000050: 3ddd babd dbaf b7bd 2066 833b 60a7 c1bd
00000060: 412e a7bd deb4 2a3d 847f c33a 451d c5bd
00000070: c79c 813d d7b5 d73c 145e 7b3d c529 923d
00000080: 7b4b abbd 7e86 0fbd 021b 58bd c2ae 763d
00000090: 7c59 afbd b069 1abd c138 11bd f979 793d
000000a0: 0739 8f3d ab08 c2bd e8ad c23c bea7 58bd
000000b0: 5ada c63d 0452 c2bd 7f5b 43bd 8e9a a33b
000000c0: 80a8 af3d 596b b3bd a450 61bd 6160 bb3d
000000d0: 0cff 0abd 6455 d6bc 716a 9bbd d311 cbbd
000000e0: 2056 a03d f9ef 78bd ecb1 8f3d dab1 00bd
000000f0: 6ba0 fa3b d998 cdba 4fd7 b1bd 2624 8cbd
00000100: 2450 ccbd 8042 983c c498 9e3d f09c b6bd
00000110: 6a13 80bd 4839 d6bc c752 d03c d58d 3b3d
00000120: 03fa 1c3d 3095 c1bd bb4c 99bd 6899 143d
00000130: c620 783d ac3e 2cbc 5864 3bbd df1b bbbd
00000140: 0e97 693c c7e2 a13d 6131 9fbd 2813 87bd
00000150: 5106 533b 15ca 0ebc cf2d c73d 3955 8bbd
00000160: 8e9e b6bd 1397 aebd 7f58 123d ad2f c63d
00000170: 480e 41bd 6081 b3bd 6833 a13d 832a 533d
00000180: 8a63 9abb 7e52 a13d 82e0 513d 99dc da3c
00000190: be19 aabd 27f4 3fbd c040 0abb 18a3 37bd
000001a0: af70 e4bc 8a89 473d 2a58 a03c eff3 933c
000001b0: 783a 2c3d 40b3 9f3d 4f11 16bc cfb7 80bd
000001c0: 75f8 a7bd 1720 84bd e7fb 80bc 3300 a7bc
000001d0: f593 c0bd 1a63 863d 99e5 94bd 1090 75bd
000001e0: 6476 36ba ec48 0d3d 9e68 aabd 3005 8ebd
000001f0: 01d0 05bc 27e2 bb3c 95e3 0d3d 55c5 923d
00000200: 929b 36bd a735 a0bd 4a56 58bd 6863 a9bd
00000210: 6266 74bb e23c 63bb 5a39 2cbc 1a65 3b3c
00000220: 085e 74bd cc82 273d 9bc4 593d 2cd7 c63d
00000230: aca4 b03d 2918 5c3d 32b7 b2bd 44ab a73d
00000240: 8b7a 863d 8656 a33d 0d0a c1bd 3afc 9dbb
00000250: 17a9 1cbc 7016 8a3d e65b 703d 847a 6dbc
00000260: 3d5e 983d 4322 c6bd 638f 87bd 1fee 173c
00000270: 919f cdbc b1d0 b1bd 45cd a2bd 7c7a f63c
00000280: ddc7 65bd 24be 89bd 855b 863d 75e0 173d
00000290: 30d5 953d 0ccf c33c 2e01 3d3d 2838 73bd
000002a0: 8324 94bd 803b 563c 4d32 d3ba 9f5c 153d
000002b0: 65c5 4fbd 30b6 263d 336f 07bd 31c2 25bc
000002c0: 5ada 32bd 8b7e 8a3d abb4 3ebd ffb7 acbd
000002d0: 4d2b 8dbd 6387 2d3d 57ef 41bd 26a8 1bbc
000002e0: 49ea 813d a59e c23d ff62 a43d e9b0 673d
000002f0: 26df b0bd 7584 31bd 9cee 99bd 6126 fabc
00000300: 762f eebc 49c9 1c3c 9a8c 2bbc 1568 74bd
00000310: b73a 0d3d c470 71bd f8cb 4ebc dff0 973d
00000320: 0629 053c 2e01 aebc 46fb 96bd 5353 03bd
00000330: 5dea 9a3d 31a8 ccbd 1e72 5dbd e7f6 533d
00000340: ac70 4c3c 21d2 153c dff9 b73d e1e5 013d
00000350: b20d 093d 5624 2f3d 48ad 623c 56a1 f2bc
00000360: e3fe 0dbd c15b 8dbc 3955 aabd b3d1 95bd
00000370: 392f afbd db73 88bc 76ce 0a3d 0795 8a3d
00000380: aba8 943d 5fd5 b13d 791c 893d 525c 9bbd
00000390: 7727 af3d b83c 3d3d e06f 55bc 1a7e 7b3d
000003a0: 9384 5ebd 5ddd c73d 902f c83d 5285 913d
000003b0: e099 c03d 1c41 9abd 779d 21bd 0646 95bd
000003c0: 8d4f 9bbd 4505 353d 9550 723c 1114 903d
000003d0: 31ee ce3d b894 26bd 0d34 8dbd c91c 403c
000003e0: f441 5ebd 5cfe 533c cd77 a13d edbf ee3d
000003f0: e6d1 bd3d 0c7f 853c 6be9 563d 2710 c53d
-0.092743285 -0.02912947 0.038653232 -0.07485302 0.081013046 0.016590511 -0.045534275 0.02182239
0.060538806 0.0431434 0.08830744 0.022998974 0.029110974 -0.06021226 0.018842557 -0.08240222
0.041262917 0.10137427 0.06697877 0.067563735 -0.09124229 -0.08969089 0.004009977 -0.094557524
-0.08163119 0.041676395 0.0014915322 -0.09624723 0.06328731 0.026331825 0.061369017 0.07136873
-0.08364006 -0.03504037 -0.05276013 0.060225256 -0.0856199 -0.037698448 -0.035454515 0.060907338
0.06993299 -0.094743095 0.023764566 -0.052894346 0.09709616 -0.094882995 -0.04769468 0.0049927896
0.08577061 -0.08760709 -0.055008546 0.09149242 -0.033934638 -0.026163764 -0.075886615 -0.09915509
0.07828927 -0.06077573 0.07016358 -0.031419612 0.007648518 -0.0015685811 -0.08683645 -0.06842832
-0.09976223 0.018586397 0.077439815 -0.08916652 -0.06253703 -0.02615036 0.025430096 0.04578956
0.038324367 -0.094522834 -0.07485338 0.036279112 0.06057813 -0.010512989 -0.045749992 -0.09136175
0.014257206 0.079045825 -0.0777309 -0.06595451 0.003219981 -0.008715172 0.09725534 -0.06803364
-0.08916961 -0.08524909 0.035728928 0.09677062 -0.04713276 -0.08764911 0.07871133 0.051554214
-0.004711573 0.07877062 0.051239498 0.026716517 -0.08305691 -0.0468637 -0.0021095723 -0.044833273
-0.027885763 0.04871515 0.01957329 0.018060653 0.042047948 0.07797861 -0.0091594 -0.06285059
-0.08201686 -0.06451433 -0.015745116 -0.020385837 -0.094032206 0.06561871 -0.07270355 -0.05995184
-0.00069603906 0.03449337 -0.083207354 -0.06934583 -0.008167268 0.022934986 0.034640867 0.07166544
-0.044581957 -0.07822733 -0.052816667 -0.08270913 -0.003729247 -0.003467374 -0.010511721 0.011437679
-0.059659988 0.040896222 0.053166013 0.097090095 0.08625159 0.05373398 -0.08726348 0.08186963
0.06566342 0.079754874 -0.09425745 -0.0048213275 -0.009561799 0.06742561 0.05868139 -0.014494542
0.074398495 -0.09674504 -0.06619146 0.009273081 -0.025100501 -0.08682383 -0.07949308 0.030087702
-0.056098808 -0.067257196 0.06560425 0.037079293 0.07316053 0.023902439 0.046143703 -0.059379727
-0.072335266 0.013075709 -0.0016113013 0.036465283 -0.05072536 0.04070109 -0.033065032 -0.0101171
-0.043665268 0.067624174 -0.046559017 -0.08433532 -0.068930246 0.042365443 -0.047347393 -0.009500539
0.063435145 0.09502915 0.080266945 0.0565652 -0.08636312 -0.04333921 -0.07516214 -0.030535879
-0.029075366 0.0095694745 -0.010470534 -0.059669573 0.034479823 -0.058945432 -0.012621872 0.074189894
0.0081274565 -0.021240797 -0.07372145 -0.032061886 0.075642325 -0.099930175 -0.05406391 0.051749136
0.012478035 0.009144337 0.08983206 0.03171337 0.033460326 0.042759262 0.013835259 -0.029617947
-0.034666907 -0.017255666 -0.08317036 -0.073153876 -0.08553929 -0.016656807 0.033888303 0.06766706
0.07258733 0.086832754 0.06694884 -0.07585968 0.08552449 0.046200484 -0.013027161 0.061399557
-0.05432565 0.097590186 0.09774697 0.07105507 0.09404349 -0.0753195 -0.03945681 -0.072887465
-0.075835325 0.04419448 0.01478972 0.07035077 0.10104025 -0.040669173 -0.068946935 0.011725613
-0.054262117 0.012939062 0.07884178 0.11657701 0.092685506 0.016295932 0.0524687 0.096222214

mlp2.0.bias f4 [100]
00000000: f5ae 80bd d200 313d 56d1 263d 2402 5139
00000010: bcea 583d 9d05 f13d 1dd1 a93c e41c 6f3d
00000020: 4186 d5bb 8f86 fe3c 23e9 da3c d729 e53d
00000030: 3804 503d 34fd 573d 87ab 243d 6f25 ed3d
00000040: 13d9 45bc 207c d83d 004b 8e3d e50c 13bd
00000050: 7c3d 06bd e00f 96bd e439 b6bd 6082 46bd
00000060: 5cf5 973d f8e0 8b3c eb03 e73c e87c 19bd
00000070: 9f1b cebc b1e2 cf3d 927b c5bd d02a 193d
00000080: 379f 57bd 7a06 003d 25d6 083c 4ee7 593d
00000090: 0b88 4e3d c960 b23c a243 d7bc b8b0 c63d
000000a0: ff8b 4bbd dcb4 973b e1bc 92bc fc03 bdbd
000000b0: 4724 a6bd 77e7 a73a c9ff 9dbc 342a 9d3d
000000c0: 9e86 a43d 4fc1 e8bb 3833 283d 605e bdbd
000000d0: 04b5 203d dd4c 7bbd 6633 fcbc 4985 91bd
000000e0: dc41 65ba 7fc8 f1bc c596 41bd 6c3b 70ba
000000f0: 3128 c53d 1385 c4bd 2d6d fe3c a30d 043d
00000100: 4dcf e53d 5450 823c 05fd 093d 738c f8bc
00000110: dada 2abd a416 4abd 3f99 9cbd 0583 183d
00000120: 8379 0c3d ac4a 59bc f09e 2d3d fa44 163e
00000130: b0aa 1ebd 0e83 a53d 409a 7ebc be40 2dbd
00000140: b428 48bd 357f e73d 1fa4 4e3d d010 963d
00000150: 7e09 4fbd c548 50bb 3897 30bc 7be0 2c3d
00000160: aa2e e63c 5497 163d e6ae 03bd 2d40 86bd
00000170: a84d a73d 7e66 24bd e614 8b3d 61d0 4dbd
00000180: 511c d63c dfae 40bd 2dd1 7f3d 5a0c 0c3d
-0.062833704 0.043213673 0.040726982 0.0001993259 0.052958235 0.11768649 0.020729596 0.05837716
-0.0065162485 0.031070022 0.026722496 0.11189621 0.050785273 0.052731708 0.040202644 0.115794055
-0.01207568 0.1057055 0.06947899 -0.03590097 -0.03277348 -0.07327247 -0.088977605 -0.04846418
0.074198455 0.017075047 0.02820011 -0.037472636 -0.025159655 0.1015066 -0.0964271 0.037394345
-0.052642073 0.031256177 0.008351837 0.053199105 0.05042271 0.021774666 -0.026277367 0.09701675
-0.049694058 0.0046297144 -0.01791233 -0.092292756 -0.08112388 0.0012810071 -0.019287007 0.07674065
0.08033489 -0.0071031223 0.04106447 -0.09246516 0.03923513 -0.0613526 -0.030786227 -0.071055
-0.00087454705 -0.02951455 -0.047262926 -0.0009164128 0.096268065 -0.095956944 0.031057918 0.032239567
0.1122118 0.015907444 0.033688564 -0.030340409 -0.04171262 -0.049337998 -0.07646417 0.037234325
0.03429557 -0.013262432 0.042387903 0.1467475 -0.038737 0.08081637 -0.015539706 -0.04229807
-0.048866943 0.1130356 0.050449487 0.073274255 -0.05054616 -0.0031781655 -0.010778241 0.04220627
0.028098423 0.03676541 -0.032149218 -0.06555209 0.08169109 -0.040136807 0.067910954 -0.050247554
0.02613655 -0.04704177 0.062455345 0.034191467

mlp2.2.weight f4 [50, 100]
00000000: 1f61 a53d 5287 983b 8bce f7bd 11ce 66bc
00000010: 2500 96bd 610c b8bd c926 543d 3ee8 263d
00000020: f82c 6dbd 0ea7 cd3d 18a3 923d 71c8 503c
00000030: 4673 9abd 382a 183e d8ee 933d c483 a9bc
00000040: 8d7f 423d 203a ccbd df36 e63d ae69 5fbb
00000050: cba2 68bd 26ca 4dbd ce9d 903d 1dd1 783d
00000060: 1b48 00bd edca e4bc 410e f3bc 3998 953d
00000070: 7bcf 1ebd a64b 81bd 1847 8ebd f3e9 9ebd
00000080: 5a7e 27bd d9bf 623d 7380 f7bd 0824 bb3c
00000090: c5d4 34bd e550 88bd 22bf 173d 0621 9abd
000000a0: 1c3a 4cbd bbb1 1a3d 34c9 a93d 86b5 9dbd
000000b0: bbd4 97bd de4c 743c c29a c7bd 1ec1 80bd
000000c0: 3734 45bd 59e2 173d 0133 fa3d 3106 bb3d
000000d0: 5ce1 843c 728d 04bc 6faa 8fbd eed9 5cbd
000000e0: 6be6 9dbd 8661 c73c 16e9 f93d 883d 8b3d
000000f0: 8872 88bd 8783 cbbc 532d 75bc 41d2 a73d
00000100: b9ce 843b f926 83bc e9e5 323e c861 74bd
00000110: 791d b3bd 9823 823d e84d 95bb 6c05 3fbd
00000120: 9f69 243d 99ed 22bd eacf 3dbd 08de bcbd
00000130: 438d 2bbd 08ad 563d b8cc ff3d d581 2ebd
00000140: dedf c8ba 34f9 b83c 3e47 41bd bbbb 07bd
00000150: 8060 3e3d 9dc4 7cbc fef3 54bd de57 05bc
00000160: f3f6 933c 5976 ec3d b03b a2bd 4227 913d
00000170: 6bdb a8bd 8be9 83bd 8aca 833d e870 a03d
00000180: 877e fdbd b311 033e 1e53 a5bd 917b 963c
00000190: a284 2fbc 3d01 cebc cbfd e83d c357 ccb9
000001a0: cddf b53d e5ed ba3d 10f9 26bd fdae b8bc
000001b0: 8dd2 edbd cb24 19bd d8d4 5f3d d8a9 d23d
000001c0: a7b3 92bd d390 03be 0b3a a43d 2ba5 53b9
000001d0: c7db d2bc bb3d b03d 7c26 833d 0cf8 f73d
000001e0: 8afa 9d3d 36d8 d33d acd1 9bbc 6e9c e8bc
000001f0: 80f3 2c3d 2a38 823c b95f 223d 1cfd a63d
00000200: 4bfe 603d 4f90 533c 1f7a 653c ae75 23bc
00000210: 2f69 c33d 285a 863d 559e a1bb 59d9 96ba
00000220: f82b 9dbd b266 d03b ec2e 003c 0c7a ae3c
00000230: e239 bfbd 870f 273d 83a2 033d deaf 7cbd
00000240: a309 703d ff3c 03bd 4fce 7dbd 4cee df3d
00000250: 7929 26bd 61ec 453c 359d ccbd b98d f5bd
00000260: d128 b63d 3303 b5ba e51d 7d3c 5c42 43bd
00000270: 20a6 9fbd 01cb 57bd ca3e 0a3d 7eff ebbc
00000280: 4344 573d 91a5 52bd 03f0 44bd 316e 833d
00000290: 702f c3bc 1e0d dd3d 8289 b5bd 5deb 8fbd
000002a0: 046a 7d3d c8e0 b6bd abf7 653d 5b6a 0f3e
000002b0: 778d f6bd cbbc ec3c d994 c73c b376 203d
000002c0: d387 323d ff83 8b3b 5b2d 383d aff4 953d
000002d0: af50 4dbd 23f8 843d 0238 b93d 63da 15bb
000002e0: 487e adbc 33c0 c43d 9349 563d 9d06 3dba
000002f0: 1372 aebd 0025 c7bc 423b bbbd 8f1b 63bd
00000300: 83b9 febc f9fe d1bd 3a5d a23d fd78 8dbd
00000310: cdcf febc 5698 7b3d 79b9 c2bc 5f80 2bbc
00000320: 9776 98bd 343a 8c3d 223e d53c 5063 adbd
00000330: 69be 0f3e cf68 9b3d 8587 dfbd 832b bc3c
00000340: bab8 05be 4b3e 233c 00f8 333d d5e1 b7bb
00000350: 0dc8 fd3c 6d59 d1bd 4bd6 063d 2018 67bd
00000360: 35ac b63d 73d8 88bd 861d 26bd 6f4f 253d
00000370: c8c3 9e3d b4e0 133d fd59 c13c 52c7 373d
00000380: 93dc a33d b6b4 b4bd 28aa 4c3d 1f3d b5bc
00000390: 68f0 2e3d 5772 dd3d 9ccc eabc 8024 873d
000003a0: 3f04 b2bd 6d58 5ebd 1ea6 d93d 95e7 173d
000003b0: 717d 24bb 42e1 ce3d 9352 4ebd deda 1bbc
000003c0: 4a99 a63d 5e8c cbbc 26c0 ec3d af56 ae3d
000003d0: c2f7 99bd 933a 1fbd 0426 9c3d c295 a03c
000003e0: b912 8cbd d123 bb3d 27e8 b73d 3db0 363c
000003f0: 56ca 48bd 33b4 cbbc 6247 5c3d 41f3 53bd
0.08075165 0.0046548033 -0.12099942 -0.014087216 -0.07324246 -0.08986736 0.0517948 0.040748827
-0.057904214 0.10041629 0.07160014 0.012743101 -0.07541518 0.14859855 0.0722329 -0.020692714
0.047484923 -0.09972024 0.112409346 -0.003409009 -0.056795876 -0.050241612 0.07061349 0.0607463
-0.031318765 -0.027928794 -0.029669883 0.07304425 -0.038772088 -0.06313257 -0.06947154 -0.07759466
-0.040891983 0.05535874 -0.120850466 0.02284433 -0.044148225 -0.066560544 0.037047513 -0.0752583
-0.049860105 0.037767153 0.082903296 -0.077006385 -0.07413622 0.014910905 -0.097463146 -0.06286834
-0.0481455 0.037081096 0.122167595 0.0913204 0.016220741 -0.008090364 -0.070149295 -0.05391877
-0.07709964 0.024338495 0.12202661 0.067988455 -0.0666247 -0.02484299 -0.014964419 0.081943996
0.0040529636 -0.016009795 0.17470516 -0.059663564 -0.08745856 0.06354445 -0.0045564063 -0.04663603
0.04013979 -0.039777372 -0.04634086 -0.092220366 -0.041882765 0.05241111 0.12490219 -0.042604286
-0.0015325507 0.022579767 -0.047187082 -0.033138018 0.04647875 -0.015427736 -0.0519905 -0.008138625
0.01806209 0.115460105 -0.07921541 0.07087566 -0.08244976 -0.06441029 0.06435116 0.07834035
-0.12377649 0.1279972 -0.08072494 0.018369468 -0.0107127745 -0.025147075 0.11376532 -0.000389753
0.08880577 0.09127406 -0.04076487 -0.022544378 -0.11612425 -0.037388604 0.054646343 0.102863014
-0.07163172 -0.12848215 0.08018883 -0.00020184058 -0.025739564 0.08605524 0.06403825 0.12107858
0.07713802 0.10343973 -0.019020878 -0.028394904 0.042224407 0.015895922 0.03964207 0.081537455
0.054930013 0.012912824 0.014006167 -0.0099767875 0.095415466 0.06560165 -0.0049322047 -0.0011508866
-0.07674402 0.0063598985 0.007823687 0.02129843 -0.09337212 0.040786292 0.032137405 -0.061691158
0.05860294 -0.032040592 -0.06196433 0.109341234 -0.040566895 0.012080283 -0.09990922 -0.11989922
0.08894504 -0.0013810158 0.015449022 -0.047670707 -0.07795358 -0.052683834 0.033751287 -0.028808352
0.052555334 -0.051427428 -0.048080456 0.06417502 -0.02382633 0.107935175 -0.08864118 -0.07027314
0.061868683 -0.08929592 0.056144398 0.14005415 -0.12038701 0.028898617 0.024362968 0.0391757
0.043586563 0.0042576785 0.04496513 0.0732206 -0.050125774 0.06492641 0.09043886 -0.0022865764
-0.02117838 0.096069716 0.05231626 -0.0007210763 -0.08517852 -0.024309635 -0.09142162 -0.055446204
-0.031094318 -0.1025371 0.07927938 -0.06907842 -0.031104947 0.061424576 -0.02377008 -0.010467618
-0.07444494 0.06847039 0.026030604 -0.08466208 0.1403748 0.0758835 -0.1091452 0.022969967
-0.13058749 0.009963582 0.043937683 -0.005611638 0.03097918 -0.10222135 0.03291921 -0.05641949
0.08919565 -0.066819094 -0.0405555 0.040358957 0.07752186 0.036102965 0.02360248 0.04486782
0.080010556 -0.088235304 0.04996696 -0.022123871 0.042709738 0.10812824 -0.028662018 0.06598759
-0.08692216 -0.05428355 0.106273875 0.03708609 -0.0025099183 0.10101558 -0.050371718 -0.009512631
0.08134706 -0.024847206 0.11560087 0.08512627 -0.07517959 -0.03887422 0.076244384 0.01960266
-0.068395086 0.09137691 0.089798264 0.011150417 -0.049021088 -0.0248662 0.053779013 -0.051745657

mlp2.2.bias f4 [50]
00000000: de4e b4bd bcd3 8bbd ba86 363d b6c0 b5bc
00000010: c31c 90bd 4ef5 d33c c1fc 9abc bbaa 0b3d
00000020: 2e66 7ebd 31a7 69bd ebe2 7cbd e411 1b3c
00000030: f5da e63b 7513 47bc 5821 c73c 8d0a fabd
00000040: 68e2 8dbd 39b4 79bd 1c97 0fbe 1b22 c43c
00000050: ed73 9f3d e8a0 813d baf5 acbd 7ac3 423b
00000060: 04c4 ec3d 9cd5 da3b 243a 17bc 76c0 11bc
00000070: e4a8 d03d 7855 d63d 9b98 763d da22 ecbd
00000080: 7c1d 86bd a90d a93d a29c 3a3d c2c7 733c
00000090: bd75 9b3c 58cb 0ebd 5bca 85bc ebb1 b4bc
000000a0: 4a0c cbbd ef62 78b9 4ea6 45bd 3bcf ed3d
000000b0: 7547 8bbd 62e1 f23c 1309 03be a5e7 603d
000000c0: 95c2 023d a20f fc3c
-0.08804105 -0.068274945 0.04456208 -0.022186618 -0.07036736 0.025873806 -0.01891935 0.03409837
-0.062109165 -0.05704421 -0.061739843 0.009464715 0.0070451447 -0.012150635 0.024307892 -0.12209044
-0.06927949 -0.06096289 -0.14022487 0.023942044 0.07785783 0.063295186 -0.08445306 0.0029718564
0.115608245 0.0066782963 -0.00923017 -0.008895984 0.10188463 0.104655206 0.06020413 -0.11530085
-0.065485924 0.082545586 0.045559533 0.014879169 0.01897704 -0.034861892 -0.016331842 -0.022057494
-0.09914453 -0.00023687979 -0.048254304 0.11611792 -0.06800739 0.029648487 -0.1279643 0.054908413
0.03192385 0.030769173

attention.0.weight f4 [100, 100]
00000000: afe7 95bd 4f87 86bd 6b4f 823d 3dc6 81bd
00000010: ea6f c63b d768 af3a c076 d33c 33f1 6ebc
00000020: 0a80 7f3c 1027 53bd b56c b83d f8dd c1bd
00000030: ac1f fabc 2ae9 c4bd 31bb a13b 2a0e 0bbd
00000040: 3fde 9ebd acfb c53c 3858 7f3c d8fe 99bd
00000050: 6683 933d a6de 6e3d 51bd 723d 7426 85bd
00000060: 260e 72bb 81ba 45bd cef6 a8bd 830c 7f3d
00000070: 7928 38bd f4df 12bd bf9d 5f3d f82b 96bd
00000080: c3eb b53d 0f8f c73c cbda b63d a28d 84bd
00000090: efc1 3bbd de8d 7fbd c6fa 92ba 2e12 d1bc
000000a0: c3c3 aabd 48c2 c93d a903 91bc c989 b43d
000000b0: 3a35 b03d 7271 223b c6d3 823d 5ac7 853d
000000c0: cf3d bf3d 7296 7cbd e713 58bd 3ca8 b33d
000000d0: 7ed1 75bd 3597 0bbd 8163 17bd e595 8abd
000000e0: b0c1 ad3d 66e7 273d 789a 733c f557 7dbd
000000f0: c48b 843d d3e9 a4bd 44a4 303d 1dfc b03d
00000100: 2237 8d3d 62f8 8b3d 46b8 6e3d 6756 a33d
00000110: 4669 283d e30e 983d e642 3f3d a9d2 b13d
00000120: 4947 a93c 897e b13d 20a5 32bb 2cf7 a93d
00000130: 6d54 233d cbc9 ca3d c664 96bd 2531 99bc
00000140: 8753 b4bd 0a0b 8dbc 64c9 e9bb f18c c1bd
00000150: 5450 aebd 9a1e 60bd f591 bcbd f7e0 b33d
00000160: cf66 c33d 60e3 92bc 5828 a7bd e713 c13d
00000170: 3990 37bc f616 2cbd 9880 0c3b ced9 3fbd
00000180: 896d 463d c5e4 063d ccc1 9dbd 74ec 62bb
00000190: d04c abbd 8f1e 1abd c292 b6bd a0ae a5bd
000001a0: 5c68 203c 970d 9dbd 4a22 82bd 4f7f 0d3d
000001b0: 751f 7cbd 1f11 5fbd c064 a6bd e4fd 543d
000001c0: b272 32bd 4f56 c4bd f147 96ba 5333 e93c
000001d0: f650 2ebd daaf 233d fc3a c7bd 7f61 5fbb
000001e0: 7de1 28bd 462a 8d3d 0f66 a7bd 0469 dbbb
000001f0: 4161 1a3d 62ba 1d3b a74d aa3d dc3a 01bd
00000200: 882f b8bd 58bf cfbd 7db8 a83d 5433 023d
00000210: 83b1 1abd 491f 143d b0a8 10bd 7d67 33bd
00000220: ffe8 673d 6741 8fbd 22d9 aa3d ae81 263d
00000230: 19f4 b0bd ded9 b23d f150 9bbd 71ff 42bd
00000240: 86e3 8bbd 9d30 2cbc d9ad 3fbd 3e49 55bb
00000250: b2a2 153d ec4a 543d ce79 a33d df63 b9bd
00000260: f8ed 8ebd ba35 97bd 8d12 87bd f7c2 afbc
00000270: 467a abbd 6ee8 513d 3eb4 a0bb d794 913c
00000280: 8207 37bd 3a79 063d 7f48 6ebd 6063 ccbd
00000290: e7cf 9cbc 88e5 013c eebe 0a3d fad9 e3bc
000002a0: 58ad a83d 70d1 1dbc 1c7f 363d df49 81bc
000002b0: 4fe7 3cbd 7fa6 ccbd 4882 8bbd 205e 53ba
000002c0: d0c4 30bd 69d8 eabc 0690 88bd 3aa1 aa3c
000002d0: cbf8 a63d 8a26 56bc 226b c2bd 69bf eabc
000002e0: d333 cebd 2aa2 c23d b01e a13b 8808 61bd
000002f0: 1415 4ebd 1efb c2bd 4d91 73bc 4b4d b4bd
00000300: eb33 933d e789 dcbc 8ded 453d caed b53d
00000310: cb8d 523d 162e 0d3d 7b68 5e3d 2480 3a3d
00000320: 58a8 a43d f1f1 bebb 56e9 1c3d a67a c1bd
00000330: cef0 5fbc da7e b1bd 0384 b4bd 26d9 20bd
00000340: 212b 8fbd 7a57 53bd 9f13 c5bd 806d a13d
00000350: e1ee 3fbc 4237 54bd 05ed 723d 926a 80bc
00000360: 7e57 89bd ce8e 5bbd 9206 853d b4ea 5e3b
00000370: fdc8 32bd 56fb 3ebd 1c5e 5a3d b75e a4bd
00000380: a7e7 b8bd 0880 19bc 5663 603d 91bf 2cbd
00000390: c81b 2a3d cae2 bdbd 319a 0ebd 8600 ab3c
000003a0: 14ce ca3c 21ce ba3d 9dfb 41bd c4c7 0ebd
000003b0: b30c 90bd 3001 7f3b 0774 96bb ae9b 72bc
000003c0: 3500 35bc 4c02 b63d 7633 cc3b 2b5f 62bd
000003d0: b593 9fbc 2358 b1bd e549 f7bc f476 073c
000003e0: b9c9 873a 5638 67bd 3cd8 ee3c b0c2 913d
000003f0: 01af afbd 2423 853d adb0 a53d 69d5 e4bc
-0.07319581 -0.06568777 0.06362804 -0.06336639 0.0060558217 0.0013382685 0.02581346 -0.014583874
0.015594492 -0.051550925 0.09005109 -0.09466165 -0.03053268 -0.09614785 0.004935645 -0.033949055
-0.07757234 0.024167858 0.015584998 -0.07519311 0.07202797 0.058317803 0.059262577 -0.06501475
-0.0036934703 -0.048273567 -0.08250199 0.06226779 -0.044960473 -0.03585811 0.054593798 -0.07332605
0.088828586 0.024360208 0.0892845 -0.06472327 -0.045839246 -0.062391154 -0.0011213652 -0.025521364
-0.0833812 0.09851509 -0.01770194 0.08815343 0.08603902 0.0024786857 0.06388049 0.06532164
0.09337961 -0.061666913 -0.052753355 0.087723225 -0.06001424 -0.03407975 -0.03696013 -0.06766871
0.084842086 0.040992163 0.014868371 -0.06185146 0.06471971 -0.08052411 0.043125406 0.08641837
0.068952814 0.06834485 0.058281206 0.07975464 0.04111602 0.074247144 0.04669466 0.08682758
0.020663874 0.08666713 -0.0027259067 0.082990974 0.039875437 0.0990177 -0.0734344 -0.018700192
-0.08804994 -0.017217178 -0.0071346033 -0.094507106 -0.08511415 -0.054716684 -0.092075266 0.08783143
0.095410936 -0.017930686 -0.08161992 0.09427624 -0.011203819 -0.042014085 0.0021438953 -0.046838574
0.048444305 0.032933015 -0.077029794 -0.00346258 -0.0836426 -0.0376268 -0.089147106 -0.08089948
0.009790506 -0.07668608 -0.06354196 0.03454524 -0.061553437 -0.054459687 -0.08124685 0.05199994
-0.043566413 -0.095867746 -0.0011465532 0.028466856 -0.04255768 0.039962627 -0.09728047 -0.0034085212
-0.041230667 0.06892829 -0.08173763 -0.0066958684 0.037690405 0.0024067392 0.08315592 -0.031550273
-0.08993441 -0.10143918 0.08238313 0.03178723 -0.037766945 0.03616265 -0.035317123 -0.043799866
0.056618687 -0.069948964 0.08342196 0.040651016 -0.08640308 0.08732961 -0.07583798 -0.04760689
-0.06830506 -0.010509637 -0.046796653 -0.0032544876 0.03653211 0.051829264 0.07982217 -0.09052252
-0.06978983 -0.073832944 -0.06595335 -0.021455271 -0.08372931 0.051247053 -0.004904299 0.017771168
-0.044684894 0.032830454 -0.058174606 -0.09979892 -0.019142104 0.00792826 0.03387349 -0.0278139
0.08236188 -0.009632453 0.044554815 -0.015782295 -0.04611903 -0.09992694 -0.068119586 -0.0008063037
-0.043156445 -0.028667646 -0.06668095 0.020828832 0.08152922 -0.013070712 -0.0949309 -0.028655725
-0.100684784 0.095035866 0.0049169883 -0.054939777 -0.05031307 -0.09520553 -0.014866185 -0.08803805
0.07187637 -0.026921226 0.04832225 0.08883245 0.051404756 0.03446778 0.05429886 0.04553236
0.080399215 -0.0058271815 0.038308464 -0.094472215 -0.013668252 -0.08666773 -0.08814242 -0.03926959
-0.06990648 -0.051597096 -0.09622883 0.078822136 -0.011714668 -0.05181051 0.05930807 -0.015675817
-0.06706141 -0.053602986 0.06495394 0.0034014406 -0.04364871 -0.04662641 0.053312406 -0.08025878
-0.09028559 -0.009368904 0.054782234 -0.04217488 0.0415304 -0.09271772 -0.034815017 0.020874273
0.024756469 0.09121347 -0.047359098 -0.03485848 -0.07033672 0.003891062 -0.0045914683 -0.014807625
-0.011047413 0.08887157 0.0062317206 -0.05526654 -0.019479612 -0.08659389 -0.030186603 0.008268107
0.0010359801 -0.05645021 0.029155843 0.07117212 -0.08578301 0.06500843 0.08090339 -0.027933793

attention.0.bias f4 [100]
00000000: fd74 c9bd 9f4b 41bd fa16 c63c 9648 f53b
00000010: b409 b03d 0f8b 253c 3c38 973c 1122 463d
00000020: 1523 7ebd 4833 dc3c af37 013d b15b 64bb
00000030: 4c9d 303d 918d ab3d bf9e bc3d 8463 e73c
00000040: 6826 88bd 4540 c23c c59a 903d 16f2 cabd
00000050: 88a0 72bd 63fb c0bd a4a7 c4bb de98 6c3d
00000060: dda1 403d fe8e 7bbd 61ab 3b3d d3f9 b43c
00000070: 1efd 70bc 2fa2 8abd 4612 2dbb bc24 563d
00000080: d220 293d 19d7 b7bd 3185 973d ae51 b8bd
00000090: 292a 383d cd99 a33d e240 b2bd 6f01 283d
000000a0: cad0 90bd dcd4 983b e2b9 abbd 8278 233d
000000b0: 6936 d53b 2d89 b5bd 1278 c53d 18f7 75bc
000000c0: 4b1a b43d fc17 aa3c 6421 9f3d c57b 1cbd
000000d0: 3584 353d 4407 35bc 142d ca3d 42d3 5b3d
000000e0: 42b1 2bbd 91b8 c4bd 0ab3 953a 77d2 943c
000000f0: 9aab c93d 77a5 a13d faa6 5b3d 4e92 51bb
00000100: 4d70 b9bb ed93 9a3d d6a1 00bd 35f2 97bd
00000110: c83f 8abd 2bae aebd 63ad 7dbd e2b9 9e3d
00000120: a752 3a3d 89b3 283d b89c a6bd 2f6a b83c
00000130: 0096 873c 0da3 9ebb a390 923d 9f34 c03d
00000140: 8902 963d ca34 9ebc 4290 a1bd cd50 7bbd
00000150: 2db6 e2bd 622b 95bd f473 bf3c 4c1f d3bc
00000160: 6485 7f3d d0c8 d33d b8a8 a43d 0db1 8ebd
00000170: f0d2 a7bc 85b0 a7bd 50e6 ba3d 788f a83c
00000180: b0f3 853d f55b 573c 9a11 413d 7767 ecbc
-0.09836767 -0.04719126 0.024180878 0.0074854596 0.08595601 0.010103955 0.018459432 0.048372332
-0.062045176 0.026879922 0.031547245 -0.0034844691 0.04311876 0.08376611 0.09209966 0.028245695
-0.066479504 0.023712287 0.0706077 -0.099094555 -0.059235126 -0.09422948 -0.0060014296 0.057762973
0.047029365 -0.061415665 0.045817737 0.022091782 -0.014708785 -0.06769215 -0.0026408597 0.052281126
0.041291066 -0.089765735 0.07398451 -0.08999954 0.044962082 0.079883195 -0.08703782 0.041016992
-0.07071073 0.0046640467 -0.08385064 0.039909847 0.0065067303 -0.08864055 0.09642042 -0.015012525
0.087940775 0.02076339 0.07770041 -0.038203973 0.044315536 -0.011049096 0.09871879 0.053668268
-0.041917093 -0.09605516 0.0011421156 0.018166764 0.098471835 0.07892888 0.053626038 -0.0031978074
-0.0056591392 0.07547746 -0.03140434 -0.07419244 -0.067504466 -0.08529314 -0.061932933 0.07750298
0.04548898 0.041186843 -0.081353605 0.02251157 0.016551018 -0.0048412145 0.071564935 0.09385037
0.07324702 -0.019312281 -0.07888843 -0.061356355 -0.110699035 -0.07283665 0.02337072 -0.02577176
0.06238307 0.10341036 0.08039993 -0.069673635 -0.020486325 -0.08187965 0.0912596 0.020576224
0.0654062 0.013144483 0.047135927 -0.02885793

attention.2.weight f4 [100, 100]
00000000: 47ee 883c b884 b5bd a84f 51bd 7aab 90bd
00000010: 73d0 8d3d 5c35 c5bd fc9c bcbd 8df1 9d3d
00000020: 3e78 883d 5dee 7abd 6fd9 b5bd 33f3 8cbb
00000030: d016 c4bd 964b f9bc ce98 723d 9c9c aa3d
00000040: 4a06 b73d 514d 8e3d 1174 82b8 dc83 2cbd
00000050: 2661 2e3b 97ea 3ebd 3099 993d f40c c83d
00000060: 0ac5 103c 9da0 85bc 6abf 283d b777 bbbd
00000070: 3500 893d e6d5 263d 6257 66bd 1c64 5f3c
00000080: 389e ad3c 1d1e a23c 8ca5 90bc 802b 0f3d
00000090: de2f 8dbd 3b9e 903d edfb a4bc 5222 423d
000000a0: 2517 aabc c168 a0bd cd5c 9fbd 9a3f 2b3d
000000b0: e28b 133d ba63 bb3d 73c1 313d 3408 80bd
000000c0: 810d b73d 554a 74bd 69a5 29bc b569 77bd
000000d0: 0916 9c3d 496c 773b 1597 84bd 2f3c 80bc
000000e0: 4f9f fabc 3cc2 e5bc 44e3 9f3d 8ee6 b8bd
000000f0: 940a e63c 78ee 6a3c 9984 153d eeb0 5e3d
00000100: 6d16 353c f81b aa3d 94e7 1bbc 7eca 0b3d
00000110: d0c9 13bd cd5b 0bbc 9465 98bd 668a 943d
00000120: 1c6a 6a3d 8e8c c5bd cc92 3e3c e702 94bc
00000130: e053 8b3b f681 04bd 0848 593d a2ad 343d
00000140: 0d4a cbbd d0c0 7dbd 9c34 32bd 75c9 293d
00000150: f47a a43d 28fd 8a3c d263 1b3d 9f38 a83d
00000160: cf69 c5bc 2f04 f2bb da63 c43d 0926 333d
00000170: 3cac 25bd 07f2 e5bc 7c9b 873d 82dd fbbc
00000180: a630 96bc 326c 2a3d 05f2 61bd 9c23 9d3c
00000190: bd1f 973d 18a5 c53d 69e9 a03c b866 6a3d
000001a0: 8c58 af3c 0c2d fabc bde7 a7bc c90c d63d
000001b0: ae7d 003d 11bf 8f3b 0cf4 5c3d a2f0 60bd
000001c0: eae1 60bd 7194 81bd 534e dbbc e0d2 10bd
000001d0: c299 35bd 9c92 933c 0c00 883b b2aa acbc
000001e0: e027 48bc 3260 2abc 8cdd 633d f7fc 403d
000001f0: 86b1 b8bc 1330 12bd cb1f f53c 25d5 a53b
00000200: 46a8 1f3c 2277 e53c 734a 91bc 3eb2 babd
00000210: 5246 f0bb c7db 95bd 1237 e83b 1b1e a7bd
00000220: 4662 9fbd a6e1 9abd ce90 ad3d 84cf 713d
00000230: 0f51 27bd 0595 15bc 99f8 aa3d eea9 62bc
00000240: 02cf a63d c1b3 95bd 9c34 6bbd f8f0 b83c
00000250: e097 9f3d 0350 e0bb e219 07bd 6874 513a
00000260: e5f5 b8bc b878 8b3c 4d03 a63d 7d37 903d
00000270: 68fe 9dbd f38c 443d 07e7 d0bd 7d9c 7bbc
00000280: 7d2f 1dbc 6f6b 513d 0c42 373c 297c e03d
00000290: f131 143d c72f 18bd b351 3a3d 607c 86bc
000002a0: bc03 a7bc 7883 8d3d 7329 873d ac1a bbbd
000002b0: 9af1 933d aafc 653d 04c4 93bd 37fb 74bc
000002c0: 484d c3bc c918 853c 1884 9d3d a52d 053d
000002d0: 8d17 36bd dac9 67bb d8a5 f5bc afd7 c4bc
000002e0: 2ff2 a33d 0cea 6ebc c906 703d 8b31 87bd
000002f0: eb6c b9bd 4000 033b 26a2 db3b 2199 3c3d
00000300: 5afa 203d 468a 98bd 895a b5bd 2055 29bd
00000310: cf61 bc3b 629b d4bc e981 453a d152 0fbc
00000320: 1ca3 b9ba e8c7 83bc be57 ff3c 7e6b 183d
00000330: 2251 b3bd 86f3 b3bd 32f1 b13d 5511 f1bc
00000340: 517f 0abb c3dd d1bc db31 70bc acca 2c3d
00000350: 0962 09bd 165b 7fbd f20b 82bc b1e9 0c3d
00000360: 1ed6 bb3d ace1 d53b e1cf bdbd faa1 bdbd
00000370: 6f65 53bd 32ff 053b 08f0 9dbd 2dbf c0bd
00000380: 2d6a 1e3d 79fc 923c 5fd9 bbbd 32f5 823c
00000390: 1dd4 703d 60ca a63c 0fbe 8dbc 2aa0 7cbd
000003a0: 26e5 cbbd 6331 c63d 3dd3 99bd 63ba 933c
000003b0: b93f 7f3d d2de f73c d344 60bd c193 3c3c
000003c0: 9487 fb3c f48f a43d 5887 9b3d 674b 963c
000003d0: 5d09 b53c 098b 273c 5c84 283d e796 b9bd
000003e0: e5b1 fbbc 3e58 4a3d 49a9 083b d18f 64bd
000003f0: 3e1a 463a 4fed 98bc e29c 07bd 3e86 3f3d
0.016715182 -0.08863205 -0.051101357 -0.070639566 0.06924524 -0.09629318 -0.0920963 0.07712088
0.066635594 -0.061262477 -0.08879363 -0.0043014525 -0.09574664 -0.03043155 0.059227757 0.08330652
0.089367464 0.06948341 -6.220502e-05 -0.04211794 0.0026608198 -0.04661044 0.07499921 0.097680956
0.00883604 -0.016311938 0.04119817 -0.09153693 0.066894926 0.040731333 -0.05623568 0.013634708
0.021193609 0.01978975 -0.017657064 0.034953594 -0.068938956 0.0706143 -0.020139659 0.04739601
-0.02076299 -0.0783248 -0.07781372 0.041808702 0.036022075 0.09149881 0.04339738 -0.062515646
0.089381225 -0.0596412 -0.010354378 -0.060403544 0.0762139 0.0037753752 -0.06474129 -0.015653698
-0.030593542 -0.02804672 0.07807019 -0.0902835 0.028081216 0.014339082 0.036503408 0.054367952
0.01105271 0.08306116 -0.009515662 0.03412866 -0.036081135 -0.008505774 -0.074412495 0.0725296
0.0572301 -0.09645949 0.011631679 -0.01806779 0.004251942 -0.032350503 0.05304721 0.0441109
-0.099262334 -0.06195146 -0.043507203 0.04145189 0.08031264 0.016966417 0.037936993 0.082139246
-0.024098305 -0.0073857526 0.09589358 0.043737445 -0.04044746 -0.02806951 0.06621453 -0.030745272
-0.018333744 0.04160709 -0.05516245 0.019182019 0.073791005 0.0965063 0.019642549 0.057226866
0.021404527 -0.030539058 -0.020496244 0.10451657 0.031369857 0.0043867906 0.05394368 -0.054916985
-0.05490295 -0.06327141 -0.026770746 -0.035357356 -0.044336088 0.018014245 0.004150396 -0.021077488
-0.012216538 -0.010398911 0.055631205 0.047116246 -0.022545587 -0.03569038 0.029922387 0.005060809
0.009744709 0.028010909 -0.017735695 -0.09116028 -0.0073326016 -0.0731731 0.007086643 -0.08160039
-0.07782416 -0.0756257 0.08474885 0.059035793 -0.040848788 -0.009129767 0.083481975 -0.01383446
0.08144952 -0.07309676 -0.05742322 0.02257584 0.0779264 -0.0068454756 -0.03298367 0.0007990063
-0.02257819 0.017025337 0.08106098 0.070418335 -0.0771454 0.047985982 -0.10200315 -0.015357134
-0.009593842 0.051127847 0.01118518 0.10961182 0.03618044 -0.03715494 0.04548807 -0.016416728
-0.020387523 0.06909841 0.06599703 -0.09135947 0.07223816 0.056149162 -0.072151214 -0.014952472
-0.023840562 0.01624717 0.076912105 0.032514233 -0.044456054 -0.0035368116 -0.029986307 -0.024028627
0.08005177 -0.014582168 0.05860022 -0.066012464 -0.090539776 0.0019989163 0.006702679 0.046044473
0.039301254 -0.074482486 -0.08855159 -0.041340947 0.0057489644 -0.025952999 0.0007534312 -0.008747772
-0.001416299 -0.016086534 0.031169768 0.037211888 -0.08755709 -0.08786683 0.086885825 -0.02942721
-0.0021133015 -0.02561844 -0.014660324 0.04218547 -0.03354076 -0.062342726 -0.015874837 0.034402553
0.09171699 0.0065271463 -0.092681654 -0.0925941 -0.051610406 0.0020446298 -0.07711798 -0.09411464
0.038675476 0.017942654 -0.091723196 0.015986059 0.058796037 0.020360172 -0.017302541 -0.06167618
-0.09955816 0.096773885 -0.07510994 0.018033212 0.06231663 0.030257616 -0.054753136 0.011509837
0.030704297 0.080352694 0.07594174 0.018346502 0.022099191 0.01022602 0.041141853 -0.090619855
-0.030724475 0.04940056 0.0020852855 -0.055801217 0.0007557011 -0.018667845 -0.0331086 0.046758883
