coll_avo/output/attention_rl/reinforcementlearning_model.pth (torch_old, 348974 bytes, 20 tensors)

mlp1.0.weight f4 [150, 13]
000000 12 79 22 be 94 f9 5a bd 1e 11 a7 3d 32 44 80 be
       -0.15866497 -0.053460672 0.08157562 -0.2505203
000010 cb e6 0d bd 84 f9 e1 bd c6 5d 48 3e ae b6 93 3d
       -0.03464393 -0.110339195 0.19567022 0.07212578
000020 b8 7e 5a 39 4d b6 5b 3e d9 9d 4b 3e 6e af 84 bd
       0.00020837307 0.21456261 0.19884433 -0.06478773
000030 f9 c6 49 3e c5 79 92 be cf 3e 3b 3e 6a 97 ee 3d
       0.19704808 -0.28608528 0.18285678 0.11649974
000040 c5 71 61 3c 38 54 bd bd a5 7c 37 3e 4b b2 84 3e
       0.013760035 -0.09244579 0.17918642 0.25917277
000050 9d d3 33 be 8e ee fa 3d 54 2a 8b 3e c6 e3 aa bd
       -0.17561193 0.12252532 0.2718073 -0.083442256
000060 93 97 af 3d d8 13 2d 3e 0e 38 8e ba 25 a8 da bd
       0.08573832 0.16902101 -0.0010850446 -0.10676602
000070 cd 25 3e 3e a6 a3 48 3d 7c c6 4d 3d 95 32 d6 3d
       0.18569107 0.048984192 0.050238118 0.104588665
000080 52 be e5 3d 27 dd 0f 3d a9 4e 83 3e 1e a7 fd 3d
       0.11217941 0.035123017 0.2564595 0.12385391
000090 ad 57 ee 3d bb 3c 08 3e 4f 13 99 3d a5 c1 42 3e
       0.116378166 0.13304417 0.07474386 0.19019182
0000a0 ce aa 81 be 5f a4 4d be 12 2c 61 3e fd 2f 27 3e
       -0.25325626 -0.20082234 0.21989468 0.163269
0000b0 9e 6f 8d 3e 72 61 05 3b 0b f8 83 3e 5e 53 be 3d
       0.2762422 0.0020352271 0.2577518 0.09293245
0000c0 d7 c0 61 be bd 2f 89 be 8c 87 63 3d 14 9c 18 be
       -0.22046219 -0.26794234 0.05554919 -0.14903289
0000d0 0c 1a 30 be 7b 6d 89 be 7f 13 80 bd d8 d0 6d 3e
       -0.17197436 -0.2684134 -0.062537186 0.23224199
0000e0 a7 27 65 be 09 cf 25 be a2 e1 b7 3c cc f4 83 3e
       -0.22378407 -0.16192259 0.022446457 0.25772703
0000f0 f5 ff d1 bd b6 85 89 bc 9e 72 80 be a2 5b 79 be
       -0.10253898 -0.016787391 -0.25087446 -0.24351361
000100 f2 c3 7d bd ac 08 f2 3c 50 dc 3b 3e 5d 2f 7c be
       -0.061954446 0.02954515 0.18345761 -0.24627443
000110 4d 07 7b 3e 6e 84 22 be c6 ee 7e 3e 91 85 8d 3e
       0.24514504 -0.1587083 0.24895772 0.27640966
000120 eb ac 8d 3d b9 c1 85 3e 28 3a 08 3e 5a 98 e1 bd
       0.06917747 0.2612436 0.13303435 -0.11015387
000130 1a 51 01 be c3 61 84 be 7f 0f f9 3d b2 9a 16 be
       -0.12628594 -0.25855836 0.12161159 -0.14707449
000140 8a a4 6c 3c 39 dd 7c be 97 4b 65 be fa 7b 5f 3d
       0.014443526 -0.24693765 -0.22392116 0.054561593
000150 90 3d c4 bd ef ce 9a 3e e7 fa a7 be aa a1 88 3c
       -0.095820546 0.30236003 -0.3280861 0.01667865
000160 03 3e cb bd 63 48 85 3d 12 2f 37 be a7 72 21 3e
       -0.09923937 0.06507947 -0.1788905 0.15766393
000170 01 75 8a 3d 13 50 bb 3d 5d 03 95 3d 9f 34 1c 3e
       0.06760598 0.09146132 0.07276032 0.15254448
000180 ac 53 c1 bd 1a 31 e0 3c 5c 1b ca 3d 3e d5 63 bd
       -0.09439787 0.027367163 0.098685 -0.055623285
000190 25 70 a7 3e 6b e3 37 3d 9c 3f 2b be b0 ca 88 bd
       0.32702747 0.044894617 -0.16723484 -0.066792846
0001a0 cd 2e 41 3d 0c 0f 95 bd ed 96 e8 bd b0 f3 94 3d
       0.047163773 -0.072782606 -0.11356912 0.07273042
0001b0 52 6b 0a bc e0 e1 0a be 64 0e b9 3d e4 de 37 bc
       -0.008448439 -0.13562727 0.09035948 -0.011222575
0001c0 71 96 07 3e 7c 86 b1 3e 87 90 5f 3e ad fc d5 3d
       0.13240983 0.34672916 0.21832477 0.10448585
0001d0 0c 5a 3a be bb 73 d0 bb e8 8f c7 bd 6a e7 9b bd
       -0.18198413 -0.0063614524 -0.09744245 -0.07612498
0001e0 f2 35 88 be e8 0f 6c be 0f 4c e7 bc b8 c2 7c bd
       -0.26603657 -0.23052943 -0.02823451 -0.061709136
0001f0 f4 2d 2c 3e 7f 93 81 be c1 36 a7 bd b1 8f 47 be
       0.16814405 -0.25307843 -0.0816474 -0.19488408
000200 1e 44 67 be 3a 4d 7f 3d f2 5c ea 3d 82 27 d2 3d
       -0.22584578 0.06232951 0.11443509 0.10261442
000210 ed 2f 81 bd 13 f3 5b 3e 51 2b 84 be 1d 2b c6 bb
       -0.06307969 0.21479444 -0.25814298 -0.00604762
000220 c3 bb 18 be 14 bb 92 bc 66 68 af be 01 9f 30 be
       -0.14915375 -0.017911471 -0.34259337 -0.17248155
000230 d7 66 96 3e 3e c9 36 be 9f f7 1f 3e 39 ea 8c be
       0.29375336 -0.17850205 0.15621804 -0.27522448
000240 dc 6a 32 be 75 63 a4 3d 6f 58 e7 bd 92 da f4 3d
       -0.17423576 0.080267824 -0.11296164 0.119557515
000250 c9 1e 5f be 2b 7c 74 3d 18 bd a9 bd e9 3b ac 3b
       -0.21789087 0.05968873 -0.0828802 0.0052561653
000260 e9 6a 93 3d c8 cb a6 bd 8a 5e 02 3e 1c a3 12 3e
       0.07198126 -0.08144337 0.12731376 0.14320034
000270 09 29 c0 3d 27 55 5a 3e 30 17 51 be 31 7e 88 bc
       0.09382827 0.21321546 -0.20419002 -0.016661735
000280 23 93 2f be 6c e3 f5 bd 9e 09 4f be f6 75 df 3d
       -0.17145972 -0.12006268 -0.20218512 0.10911171
000290 cd 10 6e 3d b4 2c e7 3e 5e b9 96 be 55 5c ff 3d
       0.05812149 0.45151293 -0.294383 0.12468783
0002a0 ef e7 fe 3c 64 5c 08 3e 22 b9 d4 3c 6b 51 64 3c
       0.031116454 0.13316494 0.025967184 0.013935427
0002b0 2f 01 83 3d dd 64 0a 3e d1 05 59 be 6f a3 39 bc
       0.0639671 0.13515039 -0.21193625 -0.0113304695
0002c0 17 dd a4 be 68 04 20 be 74 1b 96 be 56 8c 12 3e
       -0.32199928 -0.15626681 -0.2931782 0.14311346
0002d0 5d 22 38 be a1 d4 84 3d f3 98 96 3a cf a1 80 be
       -0.17981859 0.06485868 0.0011489674 -0.2512345
0002e0 97 f4 7d be e7 46 5e be 8a 06 59 3e fb b0 ef 3d
       -0.24800335 -0.21706735 0.211939 0.11703678
0002f0 dd 78 c7 ba c9 a6 8a 3d 23 c8 09 3e b4 71 83 be
       -0.0015218515 0.06770093 0.13455252 -0.25672686
000300 04 3c 58 3e 0f 3b 50 3e a0 a9 58 be b9 40 be bc
       0.21116644 0.20335029 -0.21158457 -0.023224222
000310 d9 28 8e 3d 95 ba 0f 3e 1d 84 2e be 0c ce 4e be
       0.06941385 0.14036019 -0.17042585 -0.20195788
000320 c1 db 4e bd c7 db 36 3e b8 58 2b bb bc f4 9d bd
       -0.050502542 0.17857276 -0.002614541 -0.07712695
000330 2b 69 a9 3e 51 f8 e0 3d 3c 6d 3b 3e 53 f1 9d be
       0.3308805 0.109848626 0.18303388 -0.30848178
000340 07 87 45 be 16 a4 23 3d 9a c3 f9 3d da 3e 1f 3e
       -0.1928979 0.039951406 0.12195511 0.1555132
000350 0f bf 8e bd 36 e2 8c 3d 46 ec bc 3c 45 e0 ce bd
       -0.06970035 0.06879084 0.023061883 -0.1010137
000360 4d 37 38 3e 2f 1f 2c bc af 87 12 3e 3c 50 1d 3e
       0.17989846 -0.010505482 0.14309572 0.15362638
000370 03 ad 71 be 15 d4 0a 3e 5e ac 71 3e 43 db d8 bd
       -0.23601155 0.13557465 0.23600909 -0.10588696
000380 30 04 68 3d 8e 81 ea bd 46 6a 3c 3d db 9b df 3d
       0.05664462 -0.11450492 0.045999788 0.10918399
000390 08 98 d6 bc 4b 8d a3 bc 98 e6 13 3e a5 5a 72 be
       -0.026195541 -0.019964835 0.14443433 -0.2366739
0003a0 ee c1 94 be 5b de 50 be 05 b7 8a 3c 27 7c 65 3d
       -0.29054207 -0.20397322 0.016932974 0.056026604
0003b0 4c 89 b2 3d 1c 2a 13 be 14 26 86 3e e0 f5 36 3e
       0.087175936 -0.14371532 0.26200926 0.17867231
0003c0 a4 80 33 be 60 48 12 3e 7a 9c 62 3e 14 9b e5 3b
       -0.17529541 0.14285421 0.22130004 0.007007012
0003d0 f4 7d c8 3d 19 95 72 be c6 6e 1d be 84 f0 db bd
       0.09789649 -0.23689689 -0.15374288 -0.10739234
0003e0 fb 1f 3e 3e d4 36 f7 bc af 80 32 3e 42 64 36 3e
       0.18566887 -0.030177511 0.17431901 0.17811683
0003f0 b7 b5 29 be 3a 93 8b 3d f5 4a 8e be ef ee 4f be
       -0.16573225 0.068151906 -0.27791563 -0.2030599

mlp1.0.bias f4 [150]
000000 2c c1 87 3d eb ab e0 3d 9f d5 89 3d 8b 20 4d be
       0.066286415 0.10970291 0.06730198 -0.20031945
000010 25 15 3e 3e 38 93 ff 3d fe 4a 3e 3d 7e 02 98 bd
       0.18562753 0.124792516 0.046458237 -0.0742235
000020 d1 a3 20 3e 6c e4 c6 bd 4f ea e7 3d a5 fa b7 bd
       0.15687491 -0.09711537 0.11323988 -0.089833535
000030 87 2b 58 3c bf 51 16 3e 84 31 40 be 02 23 65 3e
       0.0131939715 0.14679621 -0.18768889 0.22376636
000040 24 61 a1 3d 57 4d 80 3e 93 5f 80 3d ed 88 3e 3e
       0.07879856 0.25059006 0.06268229 0.1860692
000050 9c 7c 33 3d 50 d5 bd 3d 99 9e 38 3d 92 95 9d 3d
       0.04382001 0.09269202 0.045073126 0.07694544
000060 ef 52 c0 3d 65 8f 41 be 17 77 48 be 8a fa 4e 3e
       0.09390818 -0.18902357 -0.19576679 0.2021276
000070 e9 2c 45 be 47 e9 3e bd 32 56 a1 bd 02 e9 88 be
       -0.19255413 -0.04660919 -0.078777686 -0.2674027
000080 d2 cd 8d be a5 d2 a7 3d d7 8e d1 3d d4 59 05 be
       -0.2769609 0.08194474 0.10232323 -0.13022548
000090 53 8d 89 3e 1a b3 df 3d 57 b5 03 be 4a 47 a1 bd
       0.26865634 0.10922833 -0.12862144 -0.078749254
0000a0 e7 15 00 3e 73 be 04 3e a5 86 8f bd 84 0f 4d bd
       0.12508355 0.12963276 -0.07008103 -0.050063625
0000b0 cb 2f 2b be c9 4d 83 be c6 46 19 be 41 45 3e 3e
       -0.1671745 -0.25645283 -0.14968404 0.18581106
0000c0 a3 03 02 3e 61 17 09 3e f0 b5 0e 3e 52 3d 28 be
       0.126967 0.13387825 0.13936591 -0.16429642
0000d0 cb 5e 66 be 2a c6 70 3e df 26 a3 bd 02 d6 1a 3e
       -0.22497098 0.23513094 -0.079663984 0.151207
0000e0 a5 20 ce bc bf f7 d9 3d a9 90 e2 3d 76 6e 77 be
       -0.02516205 0.10642957 0.11062748 -0.24163231
0000f0 ca ad 81 be f0 29 11 be a8 2b 8c 3e d4 26 68 3e
       -0.25327903 -0.14176154 0.27377057 0.22671062
000100 70 b8 37 be a6 8c 6a 3d 5b ee 38 3e 65 6c ca bd
       -0.17941451 0.05726304 0.18059675 -0.09883956
000110 0f f0 06 3c 43 2e 2d 3e 7a 5c 23 bc 8d 1c 2f 3e
       0.008235945 0.16912179 -0.009970779 0.17100735
000120 bd 80 62 3e c3 7b 41 be fc 4a 79 bc ab 56 0c 3e
       0.22119422 -0.18894868 -0.015215632 0.13704936
000130 7f 7c 6e 3e f6 b8 96 be bb 74 49 3e 86 95 74 be
       0.23289679 -0.2943799 0.19673435 -0.23885164
000140 27 2f 0a 3e 60 bd 26 be c4 57 96 3c a2 c6 89 be
       0.1349455 -0.16283178 0.018352397 -0.26909357
000150 47 af 1d be df fa 45 3e bc 25 5e be 9c 7f 0d 3d
       -0.15398894 0.19333981 -0.21694082 0.034545526
000160 62 ef 67 3e bf 97 e1 3d 27 cd 48 be a7 56 05 3e
       0.22649911 0.110152714 -0.1960951 0.13021336
000170 e9 29 8d 3e c9 37 25 3e d8 dd 51 be 05 c3 8b 3e
       0.27571037 0.16134562 -0.20494783 0.27297226
000180 e4 54 79 be 9b ab 84 be 7a 97 ce 3b ab 62 82 bd
       -0.2434879 -0.25912175 0.0063046785 -0.06366476
000190 09 24 be bd ff 16 89 be ad 2f 97 3e c3 8e 56 3d
       -0.09284217 -0.26775357 0.2952856 0.052382242
0001a0 b1 5d ad 3d e4 d8 68 be 82 e0 8f 3d bc 97 fd bd
       0.08465136 -0.22738987 0.07025243 -0.12382457
0001b0 ff 12 4b 3e b9 f2 6f bd 51 4e 50 3d 33 89 82 3e
       0.19831465 -0.058581088 0.05085594 0.254953
0001c0 89 91 00 3d 54 2f 62 be b1 dc f5 bd 2a 25 c8 bd
       0.031388793 -0.22088367 -0.12004984 -0.097727135
0001d0 97 2c 1f be 67 96 51 be 21 e9 97 3d 8b 6f 5d 3e
       -0.15544353 -0.2046753 0.07417513 0.21624582
0001e0 05 ff 44 3d e6 97 56 3e 57 12 8c be 7a ee 7a be
       0.048094768 0.20956382 -0.27357742 -0.24505034
0001f0 79 6b 3a 3e 73 b2 87 3e 5c 45 e7 bd df 21 ad bd
       0.1820506 0.26503333 -0.11292526 -0.08453726
000200 1d c0 8a 3e eb 4c d9 3d 7d ca 28 be ce aa 66 3e
       0.27099696 0.10610374 -0.16483493 0.22526094
000210 e9 fe eb bd ff 17 b7 bd 66 c7 29 bd 46 78 82 be
       -0.1152323 -0.08940124 -0.041449927 -0.25482386
000220 9d 8e 45 3e 66 54 af bd 37 e7 03 3e bc 5f 54 3e
       0.19292684 -0.085610196 0.1288117 0.20739645
000230 db fb 33 be 0e d5 63 3d f0 b6 0c 3e 22 10 40 3e
       -0.17576544 0.055623107 0.1374166 0.18756154
000240 62 2a 0c be ee a9 72 be b2 81 75 bd 0c 6c 5c be
       -0.13688043 -0.23697636 -0.05993814 -0.21525592
000250 03 9a 2d 3e 0c f8 62 3e
       0.16953282 0.22164935

mlp1.2.weight f4 [100, 150]
000000 2b 4b c6 3c dd 2f 11 bd f4 77 14 3c 35 4f 84 bd
       0.024205765 -0.035446037 0.009061802 -0.0646042
000010 7b 4d ae bc bc 0f 15 3c c7 00 93 bd f1 6b f4 bc
       -0.02127718 0.00909799 -0.07177883 -0.029836627
000020 75 c9 66 3d 72 53 8a bc 5e a2 fc 3c 68 ab 46 bd
       0.05634447 -0.016885493 0.030839141 -0.04850331
000030 9d 06 b9 3d be 94 c2 bd 90 cf 40 3c 4f b6 77 bd
       0.090344645 -0.095010266 0.011768237 -0.060476597
000040 68 d9 ea 3c 35 f2 ce 3c 6c 55 93 bd fe 6c 68 bd
       0.02866812 0.025261978 -0.07194027 -0.056744568
000050 be bb 28 bd f6 67 87 3d 80 df 00 3c 92 ae ef 3b
       -0.04119467 0.06611626 0.007865787 0.0073145116
000060 dd 0c 9d 3c c7 51 90 3c f2 b5 1a bb f7 20 49 bd
       0.019171173 0.01761712 -0.0023606983 -0.049103703
000070 a3 12 8b 3d 18 df 3e 3d 8d 03 30 bd df dc 5b bc
       0.06790664 0.046599478 -0.042972136 -0.013419359
000080 7f cb 04 bd 59 d6 14 bd cd 82 04 bd 26 6b 6c 3d
       -0.03242063 -0.03633723 -0.032351304 0.057719372
000090 be e2 0c 3c 7c 5d 2c 3d d0 6d 65 bd c4 34 7a 3d
       0.008598981 0.04208134 -0.05601293 0.061085477
0000a0 49 60 67 3c 3a 43 0a bc a6 9f a4 bd 06 98 96 bd
       0.014122077 -0.00843888 -0.08038263 -0.07353215
0000b0 31 30 cb bd 6b c6 50 3d 6a 4a 1b bb 20 e4 b4 3d
       -0.09921301 0.050970476 -0.0023695477 0.08832574
0000c0 7c a2 aa bc c3 d8 ab bd d5 c7 b7 3d a6 f4 25 bd
       -0.020829432 -0.083909534 0.08973662 -0.040516518
0000d0 de 37 54 bd 1f c5 73 bd 55 7a 87 bc 5f a5 87 bd
       -0.05181109 -0.05951416 -0.016537825 -0.06623339
0000e0 87 e5 ed 3c 73 be b5 bd 58 72 1e 3d c4 99 ca bd
       0.029040111 -0.08874216 0.038683265 -0.0989261
0000f0 b0 57 96 3b cc 57 b9 3c e5 9d 76 3b 60 23 30 3d
       0.00458809 0.022624873 0.0037630734 0.043002486
000100 71 2a ef 3b 4c 4a a4 3d de e1 ab 3c 24 c5 06 3d
       0.0072987606 0.080219835 0.020981725 0.03290285
000110 3b 3b 5d bd 8b b9 ae bd d6 1f a1 3d e4 9c a7 bd
       -0.054011565 -0.08531483 0.078674 -0.081842214
000120 05 da 56 bd ae c3 48 3d 23 5d d2 3c 83 50 9b 3d
       -0.052454013 0.04901474 0.025679177 0.07583716
000130 bc 21 6f bd 90 84 25 3d df e7 07 bd f6 a5 a8 3c
       -0.05838178 0.040409625 -0.033180114 0.020586949
000140 a2 4c b3 bd 36 f4 09 3d 3b a3 01 3d 2f a6 80 bd
       -0.08754851 0.033680163 0.03164981 -0.06281697
000150 97 03 be bc 3c ce 6b 3d f5 6b 38 bd d3 89 8e bd
       -0.023195071 0.057569727 -0.04502483 -0.06959882
000160 a3 a3 7f 3d 6a 89 73 3c 6c 8b 83 3c 76 3a 8e ba
       0.062411916 0.014864305 0.016057692 -0.0010851163
000170 b9 25 3d 3d d9 a7 3c 3d db fd 9f bc 4a c2 ee 3c
       0.046178553 0.04605851 -0.019530227 0.029145379
000180 6e ed 43 3c 71 c0 d6 bc 3c 31 49 3d 74 22 95 bd
       0.011958463 -0.02621481 0.04911922 -0.07281962
000190 03 24 22 3d c4 61 97 3c b6 45 3c bc 61 da 01 3d
       0.039585125 0.018479235 -0.01149123 0.031702403
0001a0 62 22 64 3d dd 38 3e 3d 7c cd 94 3d ba cf 2b 3d
       0.055696853 0.046440948 0.072657555 0.04194615
0001b0 f3 a3 f8 3c 7f fd 2d bd 19 9e c4 3d ed 92 88 3c
       0.030351615 -0.04247808 0.09600467 0.016671622
0001c0 90 ea 47 bd b7 0b 3a bc 01 ed 90 3d 86 0f 91 3d
       -0.04880768 -0.011355332 0.07076455 0.07083039
0001d0 c8 0f 7a 3b 97 6a 22 bc 26 87 8a 3d 02 d5 34 bd
       0.003815638 -0.009913108 0.06764059 -0.044148453
0001e0 be 60 e5 bc f7 a6 dd 3d 9a a7 c1 3c bf 37 a3 3d
       -0.028000232 0.10822862 0.023639489 0.07969617
0001f0 1a 6f 5e bd 39 df 84 bd 1f 46 a6 3d 1f 3b 09 bd
       -0.054305173 -0.06487889 0.08118843 -0.033503648
000200 b4 f6 42 3c 77 59 a7 bc 31 75 c7 3d 7c 64 c4 bb
       0.011899639 -0.020428402 0.09739149 -0.005993424
000210 b8 92 0d bd 76 08 9b 3d 39 a8 46 bd a2 0a 3b 3d
       -0.03456375 0.07569973 -0.048500273 0.045664437
000220 95 3e cc 3c 06 a9 f4 3c d8 c4 cd 3a 9d 4d 9a bd
       0.024932185 0.029865753 0.0015698923 -0.07534335
000230 3b 9b fd bc f0 8c 3e 3c 34 fb 3f 3d 48 ec 9d bd
       -0.030957809 0.011630282 0.046870425 -0.07711083
000240 fe 2b 32 bd 56 bc 22 3d ce b5 35 3d 4a d3 4f 3d
       -0.043498985 0.039730392 0.044362836 0.05073861
000250 45 04 04 3c c9 7a f2 bd dc f3 1d 3d 86 e0 c7 3d
       0.008057659 -0.11839826 0.03856264 0.09759621
000260 a8 ef 92 3d 9c 08 ad bb e0 fb 85 3d 12 00 56 bd
       0.07174617 -0.0052805673 0.06542182 -0.05224616
000270 44 ef 95 3d 5a bb 06 3d 81 76 99 3b a4 85 6d 3d
       0.07321027 0.032893516 0.004683316 0.057988778
000280 2f 8b 9c bd 27 cd 3b bc cb f7 31 bd 4b e0 e2 bd
       -0.07643735 -0.011462486 -0.043449204 -0.11077937
000290 98 53 f2 3b 31 1e 1e 3d b8 3f 0d 3c 66 75 59 3d
       0.007395219 0.03860301 0.008621149 0.053090475
0002a0 00 85 9a bd ce 19 50 bd 1e c9 96 3d ac 5c 38 bd
       -0.07544899 -0.05080586 0.07362579 -0.045010254
0002b0 71 fa a2 3d 2d b2 35 bd 51 db 98 3d 18 82 b7 bc
       0.07957924 -0.044359375 0.07463706 -0.0224009
0002c0 e8 43 0f 3d 43 12 0a bd d7 81 48 3d d6 1d 02 3d
       0.03497687 -0.033708822 0.04895195 0.031766735
0002d0 87 79 05 3d c9 23 a4 bd 1f 50 e7 bc 1b 47 88 bd
       0.0325866 -0.08014638 -0.028236447 -0.06654187
0002e0 97 81 3c 3d 41 b2 40 3c e0 1e a6 3d 46 54 4f bd
       0.046022024 0.011761249 0.08111358 -0.05061748
0002f0 39 16 5f 3d ac a0 53 3d c1 46 9d 3d 43 9b 83 bd
       0.054464553 0.0516669 0.07679511 -0.06426098
000300 c6 f2 87 3d ca d8 1c 3d f9 bd 3c bd 22 ac 2f bd
       0.06638102 0.038292684 -0.04607961 -0.042888768
000310 ad 8e 02 3c 8b a3 b7 3d a3 44 32 bd 1e 85 5b bd
       0.007968587 0.0896674 -0.04352249 -0.053593747
000320 ee 4e 8f 3d 0c 85 26 3d 76 3f 6d 3d c6 30 97 bd
       0.069974765 0.040654227 0.05792185 -0.0738235
000330 df e3 86 3d d0 e6 1a bd 3d 36 a7 3d 97 52 00 3d
       0.06586432 -0.037817776 0.08164642 0.031328764
000340 84 14 66 bd 1c f2 46 3d 33 57 01 3d 33 ed 84 bd
       -0.05617191 0.048570737 0.0315773 -0.06490555
000350 0d 4e 41 bd fa f0 87 bd 93 d5 15 bc 88 5c bf 3d
       -0.047193576 -0.066377595 -0.009145158 0.09343821
000360 de b6 18 bd c9 2a ed 3c 40 c0 29 bc 1f 35 a6 bb
       -0.03728377 0.028951066 -0.010360777 -0.0050722505
000370 47 dd ed 3c f9 69 6f 3d c9 58 88 bd 8f fb 83 bb
       0.029036177 0.058450673 -0.066575594 -0.004027791
000380 89 b9 29 3d f9 15 90 3d ae 2b 3c 3d 36 9d ec 3d
       0.041436706 0.07035441 0.045940094 0.11553423
000390 e0 41 5c bd 2c 3f 0b 3d 0d 0e 93 3d 15 68 72 bd
       -0.05377376 0.033995792 0.07180414 -0.05918129
0003a0 6f 3b 3a 3c 4a 2a 4c bd 27 78 60 3d bc a2 6f 3d
       0.011366709 -0.049845017 0.054802086 0.058504805
0003b0 1a a7 81 3d da ce d3 bc 31 75 b0 3d a3 cb 89 3d
       0.063307 -0.02585547 0.086161025 0.06728294
0003c0 0a 6e 87 3d c3 4d 1e bd 1f e9 80 bd 7d 42 8d 3c
       0.06612785 -0.038648378 -0.06294464 0.017243618
0003d0 bd 9c 86 bd f4 23 38 bd 85 f4 f4 bc 51 d3 30 bc
       -0.06572864 -0.044956163 -0.029901752 -0.010792569
0003e0 8e 38 b4 3d 0c 49 78 bd 26 cb 2e 3d 50 6c 87 3d
       0.087998495 -0.060616538 0.042674206 0.06612456
0003f0 9b a3 24 bd 1d 29 8f 3d 9a 2c 72 3d ef e9 86 3d
       -0.04019509 0.069902636 0.059124567 0.06587588

mlp1.2.bias f4 [100]
000000 51 bd 5a 3d 97 8f 36 bd 80 44 a5 bd fe 98 47 3b
       0.053403202 -0.04457053 -0.08069706 0.003045618
000010 0d 53 67 3c fc 93 9e bc c0 55 64 bd 11 52 96 bd
       0.014118922 -0.019357674 -0.05574584 -0.07339872
000020 bf 3a 38 bd 6f 42 8b 3b 2f 72 a2 bd 35 cb 99 bb
       -0.0449779 0.004249863 -0.07931935 -0.0046934136
000030 67 42 b7 bd b9 48 21 3c 89 eb 11 bd 2e 29 9e 3d
       -0.08948212 0.009843999 -0.035625014 0.07722698
000040 cf 45 7e bd cc 12 fa bd d1 06 9f bd 19 c7 07 bc
       -0.062078293 -0.122106165 -0.07764972 -0.008287215
000050 87 a0 26 3d 3c 17 dd bd 66 8a 02 bd f5 fc f4 bc
       0.040680435 -0.10795447 -0.03187027 -0.029905776
000060 82 5d a7 3c ea c3 8f bc e4 83 66 3d 64 80 9a 3c
       0.02043033 -0.017549474 0.056278124 0.01886005
000070 47 b2 96 3d 3a 55 5e bb 61 dd 9c 3d a8 25 c8 3d
       0.073582225 -0.003392531 0.07659412 0.09772807
000080 f3 f9 8b 3c 0f bd c4 3d 04 72 86 3d be 6f 98 bd
       0.017086959 0.096063726 0.065647155 -0.07443188
000090 06 4e 0b bd 91 72 0b bd 04 32 80 bd 5c de e5 bc
       -0.034009956 -0.034044806 -0.0625954 -0.02806013
0000a0 ef 29 86 3c d3 ce 5c 3d 96 c4 86 bd 83 55 8a bd
       0.016377417 0.05390818 -0.065804645 -0.06754591
0000b0 f5 72 17 3d a2 e1 39 bd 8e 3f aa 3d 53 b1 87 3d
       0.036974866 -0.045381196 0.08312903 0.06625619
0000c0 5a a1 47 bc 7c d0 42 bd f0 a6 21 3c 68 72 6a bd
       -0.012184465 -0.047562107 0.009866461 -0.057238013
0000d0 f2 50 1c bd 39 66 02 bd fd 20 b9 ba e0 18 11 bd
       -0.038163133 -0.03183577 -0.0014124211 -0.035424113
0000e0 99 4b a0 bc 5a b2 31 3d 0c 69 7a 3d dd 7c 71 bd
       -0.019567298 0.04338298 0.061135337 -0.05895697
0000f0 d4 4e d2 bd 86 75 46 3d 4b 08 e2 3a cd b8 81 3d
       -0.102689415 0.048451923 0.0017244903 0.06334076
000100 f7 24 0f bd 05 3c a3 3d 1b 71 ab bc f7 e6 46 3c
       -0.03494736 0.07970432 -0.020927956 0.012140027
000110 1b cf 90 bd 5a 1d 08 bb 6c ef 7b bc 0e 5f 7f 3d
       -0.07070752 -0.0020769448 -0.015376907 0.06234651
000120 6e fa 0f bc ae c5 91 bd bb f8 3a bd ee bf fa 3c
       -0.008787734 -0.071177825 -0.045647364 0.030609097
000130 70 c8 8a 3c 56 17 b8 3a 8e 5c 8a bd ee a6 4c bc
       0.01694128 0.0014045041 -0.06755935 -0.012490971
000140 28 53 8d 3d 3b 0b 5a 3d a2 05 29 bd 22 05 8b 3d
       0.069006264 0.053233366 -0.041265137 0.067880884
000150 30 ca 97 3d d6 da 59 3d 13 f3 70 3d 2e 2d 8d bc
       0.07411611 0.053187214 0.058825564 -0.017233457
000160 7c 2b 4a bd 52 da 6c bd 24 35 42 3c b6 1c 99 3d
       -0.049357876 -0.057825394 0.01185349 0.07476179
000170 9d 81 c7 3c a1 10 85 bc e6 63 92 3d ab 45 92 bd
       0.024353797 -0.01624328 0.0714796 -0.07142194
000180 2b f0 f7 3c 59 1b 17 3d 26 65 74 bd 2c d4 c6 3d
       0.030265888 0.036891315 -0.059666775 0.09708437

mlp2.0.weight f4 [100, 100]
000000 93 63 c1 bd b4 db f2 bc da 52 1e 3d 48 97 99 bd
       -0.094428204 -0.029645778 0.038653232 -0.07499558
000010 9c b3 a7 3d d3 e8 87 3c 7b c9 3b bd de c4 b2 3c
       0.08188555 0.016590511 -0.045846444 0.02182239
000020 8a f7 77 3d 22 b7 30 3d d7 8d b6 3d 60 5b bc 3c
       0.060538806 0.0431434 0.089137726 0.02299279
000030 73 52 f2 3c 9f 5c 84 bd e3 2e 9b 3c b2 cd a8 bd
       0.02958033 -0.064629786 0.018943256 -0.08242358
000040 58 70 25 3d 2f a8 d2 3d a8 20 8d 3d 51 66 8a 3d
       0.040390342 0.10285985 0.06890994 0.067577966
000050 cf 5e bb bd 10 be b9 bd 5c 55 6b 3b af 08 c3 bd
       -0.09148943 -0.09069455 0.0035909032 -0.09523141
000060 1a b0 a7 bd 40 b5 2a 3d c9 42 0e 3b 9b 2b c2 bd
       -0.081878856 0.04167676 0.0021707288 -0.09480973
000070 2d 1e 7d 3d fc 4d d9 3c c1 97 7b 3d 96 47 8e 3d
       0.061796356 0.026526444 0.06142402 0.06947248
000080 7b 4b ab bd 80 79 0f bd dd 83 55 bd c2 ae 76 3d
       -0.08364006 -0.03502798 -0.052127708 0.060225256
000090 e5 68 b3 bd fe 48 1b bd 24 b4 10 bd ce 5a 7e 3d
       -0.087602414 -0.037911408 -0.035328045 0.062098317
0000a0 4f 0d 8f 3d c6 4b c4 bd 63 9a c2 3c d0 fe 53 bd
       0.0698496 -0.09584765 0.023755258 -0.05175668
0000b0 5a da c6 3d 38 88 c3 bd 37 e0 51 bd 69 15 a3 3b
       0.09709616 -0.09547466 -0.05123922 0.0049769175
0000c0 cb 9c ab 3d ea 43 b3 bd cb be 5e bd 49 5c b9 3d
       0.08379515 -0.08753188 -0.054381173 0.09050805
0000d0 e4 cc 0a bd 41 0b e8 bc 71 6a 9b bd 51 0f cb bd
       -0.033886805 -0.028325679 -0.075886615 -0.09915031
0000e0 1c 86 97 3d 8e 7c 77 bd 1c 0f 8d 3d da b1 00 bd
       0.07398626 -0.06042152 0.068876475 -0.031419612
0000f0 db e4 34 3c 19 af d8 ba 90 84 b3 bd d7 77 91 bd
       0.0110408915 -0.0016531675 -0.08765519 -0.07102936
000100 70 ca cf bd fd f7 92 3c 3d 68 a0 3d d7 91 bc bd
       -0.10146034 0.017940516 0.07832382 -0.09207504
000110 8e 0e 80 bd 48 39 d6 bc c8 c2 c5 3c b3 94 35 3d
       -0.06252776 -0.02615036 0.02414073 0.044331264
000120 04 fa 1c 3d 03 57 c0 bd 5f 22 99 bd a1 f7 13 3d
       0.03832437 -0.09391596 -0.07477259 0.03612483
000130 88 71 74 3d 0b a7 25 bc 50 74 3b bd ed 37 b7 bd
       0.059678584 -0.010110627 -0.04576522 -0.08946214
000140 0e 97 69 3c 40 ff a2 3d a8 1a 96 bd fe eb 86 bd
       0.014257206 0.07958841 -0.07329303 -0.06587981
000150 1a 1a 33 3b e1 d4 3a bc 54 71 c7 3d 03 56 8b bd
       0.002732879 -0.011403293 0.097384125 -0.06803515
000160 83 67 b8 bd 13 97 ae bd d6 59 12 3d ad 2f c6 3d
       -0.09004118 -0.08524909 0.035730205 0.09677062
000170 42 a6 44 bd b8 93 b7 bd 26 6d a1 3d 84 c9 49 3d
       -0.04801012 -0.08963722 0.078821465 0.049264446
000180 43 d0 80 bb 38 8c 9e 3d 82 e0 51 3d fc 0a f5 3c
       -0.0039310767 0.07741588 0.051239498 0.029912464
000190 8f 53 aa bd 8b 3e 42 bd c0 40 0a bb fe 87 36 bd
       -0.08316719 -0.047422927 -0.0021095723 -0.044563286
0001a0 16 57 db bc 07 02 47 3d 16 b5 a2 3c 3b d6 95 3c
       -0.026774924 0.048585918 0.01986174 0.01829063
0001b0 88 c3 30 3d bb b4 9f 3d 0e 53 04 bc 09 b4 80 bd
       0.043155223 0.077981435 -0.008076442 -0.06284339
0001c0 a5 07 a8 bd 9c cb 84 bd 5b ef 80 bc 46 a5 a7 bc
       -0.08204583 -0.06484148 -0.015739134 -0.02046455
0001d0 23 8a c0 bd cc ca 87 3d 39 75 95 bd 34 a9 78 bd
       -0.094013475 0.06630477 -0.07297749 -0.06070824
0001e0 90 72 34 ba 5f 32 0b 3d 1a 35 a8 bd a3 7e 8c bd
       -0.0006883526 0.033983584 -0.08213253 -0.068600915
0001f0 cc ec e6 bb 13 60 c7 3c 10 e7 0c 3d 27 ce 96 3d
       -0.0070472714 0.024337804 0.034400046 0.07363539
000200 84 8c 30 bd 35 97 a0 bd c8 44 56 bd 69 25 a9 bd
       -0.043102756 -0.078413405 -0.05231169 -0.082590885
000210 0a e2 73 bb 15 10 79 bb be 3a 13 bc 1a 65 3b 3c
       -0.0037213587 -0.003800397 -0.008986173 0.011437679
000220 7d 6b 70 bd 22 1c 26 3d 36 ec 5c 3d 15 33 c7 3d
       -0.05869626 0.040554173 0.053936206 0.0972654
000230 d4 f5 b3 3d 9b c4 64 3d b0 52 b2 bd d4 db ab 3d
       0.08787122 0.05585156 -0.08707178 0.08391538
000240 d6 7d 86 3d 20 8b a3 3d b3 99 bf bd f4 60 73 bb
       0.0656697 0.0798552 -0.09355488 -0.0037136646
000250 1d 31 17 bc dc 28 89 3d 80 05 71 3d 63 fe 51 bc
       -0.009228018 0.066972464 0.058843136 -0.012816998
000260 16 65 98 3d c6 c7 c5 bd 25 fe 87 bd b9 ab 13 3c
       0.074411556 -0.096572444 -0.06640271 0.00901311
000270 ce d6 cd bc 6a 44 b1 bd b2 1a a3 bd 93 64 f5 3c
       -0.02512684 -0.08655627 -0.07964076 0.029955184
000280 63 10 5f bd fd ef 89 bd 10 8c 8a 3d cc 7c 19 3d
       -0.054458987 -0.06735227 0.06764996 0.03747253
000290 c7 42 99 3d e7 54 cd 3c be a4 3f 3d af c5 69 bd
       0.0748344 0.025064899 0.04678797 -0.05707329
0002a0 32 c6 8f bd 7f 3b 56 3c 1a 2d a3 ba c6 0d 17 3d
       -0.07020225 0.013075708 -0.0012449354 0.03687837
0002b0 e9 d5 4f bd b7 06 2c 3d d5 64 07 bd ab 4e 14 bc
       -0.05074111 0.04199859 -0.033055145 -0.009051959
0002c0 47 50 2f bd 7c 87 8f 3d e5 fd 3d bd 1f 0d ab bd
       -0.042801168 0.070082635 -0.04638471 -0.08352112
0002d0 db 2f 8d bd b2 90 2d 3d 16 ef 41 bd ed b9 0f bc
       -0.06893893 0.04237432 -0.04734715 -0.0087723555
0002e0 33 f6 81 3d 17 c2 c0 3d ff 62 a4 3d c2 a7 67 3d
       0.06345787 0.0941202 0.080266945 0.05655647
0002f0 f7 b2 b0 bd 74 81 31 bd 67 4e 97 bd aa e7 f9 bc
       -0.08627885 -0.043336347 -0.07388001 -0.030505974
000300 d1 93 e5 bc 98 7e 1d 3c 1e d0 2a bc 7f 73 71 bd
       -0.028024586 0.009612702 -0.010425596 -0.058948036
000310 ae 23 11 3d 24 2f 6c bd 2b ce 4e bc 43 59 9b 3d
       0.035434417 -0.057662144 -0.012622396 0.07585385
000320 c4 35 76 3c 84 25 91 bc 46 fb 96 bd e6 f8 fe bc
       0.015027467 -0.017718084 -0.07372145 -0.031124543
000330 6e 61 a4 3d 12 13 cd bd b6 79 58 bd 8b b2 58 3d
       0.08026396 -0.10013403 -0.052850448 0.052904647
000340 25 b3 4f 3c 99 86 16 3c 92 57 c0 3d 4e 84 02 3d
       0.012676989 0.009187364 0.09391703 0.031864457
000350 62 3e 1a 3d 3f 40 4c 3d 21 f5 86 3c d2 20 ee bc
       0.03765715 0.049865957 0.016474308 -0.029068384
000360 6d 31 04 bd 4a 4e a0 bc 2f 29 ac bd 41 af 99 bd
       -0.0322737 -0.019568581 -0.08406293 -0.0750413
000370 10 59 b2 bd d1 1f 87 bc 93 d3 0b 3d 59 73 8f 3d
       -0.087083936 -0.016494663 0.03413732 0.07004423
000380 28 6e 95 3d 62 e3 ba 3d 91 91 85 3d 48 cf a2 bd
       0.07296401 0.09125401 0.06521905 -0.07949692
000390 f2 bf af 3d 33 b3 34 3d 25 77 27 bc ea e4 77 3d
       0.085815325 0.04411621 -0.010221277 0.060521044
0003a0 3e 09 5a bd a4 6a c6 3d d7 a8 c9 3d 25 7c 91 3d
       -0.05323147 0.09688309 0.09846657 0.07103757
0003b0 44 2d c3 3d db 5a 95 bd 48 00 23 bd 39 6d 94 bd
       0.09530118 -0.0729272 -0.03979519 -0.07247395
0003c0 e3 e4 9a bd 69 0a 23 3d 0f 04 6c 3c 9d e8 91 3d
       -0.07563188 0.03980485 0.0144052645 0.071244456
0003d0 37 f9 ce 3d 94 ee 2a bd 0e 40 8e bd 2c a0 c6 3b
       0.10106128 -0.041731432 -0.06945811 0.0060615744
0003e0 ed c0 5f bd c7 71 60 3c 85 f4 98 3d 24 92 eb 3d
       -0.054627348 0.013699002 0.074685134 0.115024835
0003f0 c6 57 bc 3d ec d8 a3 3c b7 83 59 3d c9 6d c6 3d
       0.09196429 0.020000897 0.05310413 0.096889086

mlp2.0.bias f4 [100]
000000 86 9b 88 bd fa 86 3d 3d d2 b3 18 3d 2a 71 b7 ba
       -0.06670289 0.0462713 0.037280865 -0.0013995518
000010 ea 2c 5d 3d a2 23 e8 3d 51 e6 91 3c 25 c1 7c 3d
       0.05399791 0.113349214 0.017810019 0.061707634
000020 b6 3e 28 bb 7e 63 ee 3c c0 8b d8 3c f6 4b e1 3d
       -0.0025672144 0.029100176 0.026433825 0.110008165
000030 24 f7 5f 3d f6 58 75 3d 83 7e 2b 3d 76 ee e1 3d
       0.05467905 0.059899293 0.041868698 0.11031811
000040 28 4f 0a bc f3 41 d9 3d 9b 93 8b 3d ee 05 3c bd
       -0.008441724 0.10608282 0.06815263 -0.045904092
000050 a9 16 28 bd 99 0f 91 bd 49 4c b7 bd 6b 68 49 bd
       -0.041037235 -0.07083053 -0.08950097 -0.049171846
000060 3d 08 99 3d 97 ef 85 3c 15 64 ec 3c ac c0 09 bd
       0.074722745 0.016349597 0.028856317 -0.03363101
000070 e8 fb d7 bc b5 db d6 3d 66 81 c6 bd ab 80 e7 3c
       -0.026365235 0.104911245 -0.096926495 0.028259596
000080 32 26 56 bd 9b 3d 0f 3d fd 9b 7c 3b 7a 28 41 3d
       -0.05228252 0.03497086 0.0038545125 0.047157742
000090 e1 05 54 3d 3f 11 a2 3c c6 af dc bc 8d 10 cf 3d
       0.05176342 0.019783614 -0.026939284 0.10110579
0000a0 f0 34 56 bd 52 0f 9d 3b 3d d6 27 3b de e9 c6 bd
       -0.05229658 0.004793086 0.0025609874 -0.097125754
0000b0 01 7b a0 bd 4c 42 a1 3b fb 69 91 bc e1 49 8d 3d
       -0.07835961 0.0049212333 -0.01775073 0.06898857
0000c0 8b f0 af 3d 4d dd 92 bc 00 22 5b 3d 05 5b af bd
       0.08590802 -0.01792779 0.05349922 -0.085622825
0000d0 f6 46 27 3d 17 5c 81 bd f6 26 e7 bc d6 89 8e bd
       0.040839158 -0.06316393 -0.02821682 -0.06959884
0000e0 cf 57 87 ba 2b d8 f0 bc 00 ca 3f bd 46 32 d5 bb
       -0.0010325852 -0.029399952 -0.0468235 -0.006506237
0000f0 d4 43 d3 3d 24 49 c5 bd 78 f8 f3 3c 93 50 1a 3d
       0.103156716 -0.09633091 0.029781565 0.037674498
000100 49 15 e5 3d 10 c7 96 3b 01 8c 3a 3d 41 c1 cd bc
       0.111857004 0.004601367 0.045543674 -0.025116565
000110 da f2 3c bd 0a 9d 3c bd 34 41 9e bd af 93 1e 3d
       -0.04613004 -0.0460482 -0.0772728 0.03871506
000120 ec a6 24 3d a4 15 47 bc 55 bb 35 3d 44 f9 17 3e
       0.04019825 -0.012151156 0.044368107 0.14841181
000130 2a 00 34 bd da 30 9b 3d 41 a4 3d bc 4a a5 35 bd
       -0.04394547 0.07577677 -0.011574806 -0.044347085
000140 db 35 54 bd e7 10 df 3d 88 6d 5c 3d 53 90 85 3d
       -0.051809173 0.10891896 0.053815395 0.06521668
000150 3e 26 47 bd 91 2e 70 bc 05 eb 98 bc 2c 1d 06 3d
       -0.048620455 -0.01465954 -0.018666754 0.032742664
000160 59 e6 f8 3c db c7 08 3d 48 5a 84 bc 9a 93 76 bd
       0.030383276 0.033393722 -0.01615633 -0.060199358
000170 ea ff ba 3d 2a 59 14 bd 04 71 8c 3d 07 bb 4e bd
       0.09130843 -0.036217846 0.068574935 -0.050471332
000180 6c f3 80 3a ea 8c 1e bd f6 e8 71 3d ba 26 f8 3c
       0.000983817 -0.038708605 0.05906006 0.030291904

mlp2.2.weight f4 [50, 100]
000000 9d 45 a8 3d 3b 93 4c 3b ff 7f f7 bd de 82 90 bc
       0.08216403 0.0031215686 -0.1208496 -0.017640527
000010 de f0 8d bd 8c c8 b3 bd a1 f3 46 3d 9d 03 27 3d
       -0.069307074 -0.08778486 0.048572186 0.04077493
000020 23 72 72 bd 9a e4 ce 3d 7d 4c 94 3d 20 d7 73 3c
       -0.05919088 0.10102196 0.072411515 0.014882833
000030 60 66 96 bd 94 7d 18 3e 35 fe 8e 3d 16 a2 b0 bc
       -0.07343745 0.14891654 0.0698208 -0.021561664
000040 f8 9c 35 3d 39 4a d4 bd 01 77 e7 3d e7 8f a8 bb
       0.04433915 -0.10365719 0.11301995 -0.0051441076
000050 f0 b5 7a bd c2 77 54 bd 06 6b 90 3d f5 2f 61 3d
       -0.061208665 -0.051872022 0.07051663 0.054977376
000060 da c1 04 bd b0 63 f9 bc 7e 13 e8 bc 62 fc 94 3d
       -0.032411434 -0.030443043 -0.028329607 0.07274701
000070 7b a0 1d bd 3d 51 68 bd 72 d9 91 bd 1e 33 9f bd
       -0.038483124 -0.0567181 -0.071215525 -0.07773422
000080 33 57 27 bd 7f 00 6b 3d d8 40 00 be 07 7a a9 3c
       -0.040854644 0.05737352 -0.12524736 0.02068807
000090 cc 01 37 bd c7 ef 8a bd 9c a8 16 3d 7d 7e 95 bd
       -0.044679448 -0.06784015 0.036781892 -0.07299516
0000a0 a0 5f 51 bd 6f a5 15 3d ca c7 af 3d b4 f0 a9 bd
       -0.051116586 0.036534723 0.085830286 -0.082978636
0000b0 7c 4c 9a bd f3 9d 73 3c 0c 4a c5 bd 73 92 8b bd
       -0.075341195 0.014869201 -0.09633264 -0.06815042
0000c0 53 1c 3c bd 54 38 10 3d 55 9f 01 3e 71 12 b5 3d
       -0.04592545 0.03520997 0.12658437 0.08841408
0000d0 d5 2d 9e 3c 27 3f 12 bc 4c 47 8a bd 71 59 5d bd
       0.019308964 -0.0089261895 -0.0675188 -0.054040376
0000e0 b6 cc 9d bd 02 70 d7 3c 5a a2 eb 3d 80 3f 82 3d
       -0.07705061 0.026298527 0.115055755 0.06359768
0000f0 f3 f3 71 bd af a0 cc bc a7 9a 9c bc 14 74 ae 3d
       -0.05907054 -0.024978964 -0.019116713 0.08518234
000100 23 d8 af 3b 9a 10 9f bc d7 e5 34 3e 6d 23 81 bd
       0.0053663417 -0.019417096 0.17665802 -0.06305585
000110 7b 74 b9 bd 29 c2 83 3d f0 2f 96 bb 1c dc 42 bd
       -0.0905542 0.064335175 -0.0045833513 -0.047573194
000120 b7 47 0f 3d 78 35 12 bd 4e 33 31 bd 00 8e b8 bd
       0.034980502 -0.035695523 -0.04326182 -0.09011459
000130 58 df 24 bd 4e 5e 56 3d 22 44 08 3e 44 bb 28 bd
       -0.04025206 0.05233603 0.1330724 -0.041194215
000140 ca 55 86 bb 64 9c 8a 3c 29 4a 44 bd 24 b2 0e bd
       -0.0040995823 0.016920276 -0.047922287 -0.034837857
000150 d4 65 39 3d 16 b8 b0 bc 9b a0 5b bd 2f 74 0f bc
       0.045263126 -0.021572154 -0.053619962 -0.008755728
000160 b7 81 8d 3c 76 bf f1 3d 07 0f a4 bd 7c 95 90 3d
       0.017273767 0.118040964 -0.08010679 0.07059762
000170 be dd ab bd ef d4 82 bd 4b 27 8c 3d 1d 35 a0 3d
       -0.08391903 -0.0638827 0.06843432 0.078226306
000180 5d a8 03 be b0 93 09 3e b1 07 a4 bd 13 f1 84 3c
       -0.12857194 0.13435245 -0.080092795 0.016228234
000190 d6 b2 2d bc 41 d3 cd bc e0 a4 e6 3d 40 3e 91 3a
       -0.01060172 -0.025125148 0.11261916 0.0011081174
0001a0 dd 5a b6 3d 6a 84 bf 3d 2e 08 24 bd 9d 21 b3 bc
       0.089040495 0.09351428 -0.040046863 -0.021866614
0001b0 d8 12 f5 bd e6 71 1b bd 92 8d 60 3d 43 9c d2 3d
       -0.11966485 -0.03795042 0.054822512 0.10283711
0001c0 d4 29 94 bd e0 03 06 be 67 e2 ac 3d 43 3d e5 39
       -0.072345406 -0.13087416 0.0844162 0.00043723927
0001d0 e7 45 c6 bc 1a 04 af 3d 8e c0 80 3d b1 40 fb 3d
       -0.024203254 0.08545704 0.06286727 0.12268198
0001e0 99 1e a4 3d 35 7e d4 3d e2 c1 9b bc ab cf bc bc
       0.080136485 0.103756346 -0.019013349 -0.023048243
0001f0 45 50 32 3d 7a cf 81 3c 91 a5 2e 3d f4 b8 a6 3d
       0.043533582 0.015846003 0.042638365 0.08140746
000200 b3 64 5f 3d df 7f 2c 3c 69 25 6f 3c a5 ba ff bb
       0.054539394 0.010528534 0.014596322 -0.007804232
000210 64 88 c3 3d 7f cf 84 3d 6e c1 4a ba de 0b 86 39
       0.09547499 0.06484889 -0.0007734512 0.00025567313
000220 d4 cb 9b bd e2 0f 12 3c 5d b8 04 3c 79 4e a9 3c
       -0.076072365 0.00891492 0.008100596 0.020667301
000230 d0 ae c2 bd 9a f7 22 3d 7d f1 00 3d f7 76 6c bd
       -0.09505999 0.039786913 0.0314803 -0.05773064
000240 81 7f 77 3d 9c 4a 0b bd 99 88 77 bd 51 b6 e6 3d
       0.06042433 -0.0340067 -0.060433004 0.11265243
000250 56 88 35 bd ff 8d 5a 3c b6 48 d7 bd 37 6e f6 bd
       -0.044319473 0.013339519 -0.105119154 -0.120327406
000260 16 ac b9 3d 7d c3 7f ba 5d 1c 90 3c e2 0e 43 bd
       0.09066026 -0.0009756608 0.01759165 -0.047621615
000270 6d bc 9f bd 3a d2 53 bd 3a fe 05 3d 2c 2f e2 bc
       -0.07799611 -0.05171416 0.032713152 -0.027610384
000280 6e 9f 4e 3d 5c bc 52 bd 08 02 4b bd cd 4d 81 3d
       0.050445013 -0.051449165 -0.049562484 0.063136674
000290 ea 81 cb bc 27 95 df 3d d5 8c be bd 1b ff 87 bd
       -0.024842221 0.109171204 -0.09304205 -0.066404544
0002a0 75 d6 7f 3d 52 f9 b7 bd 88 bf 65 3d 3e a4 16 3e
       0.06246038 -0.08983101 0.05609086 0.14711091
0002b0 20 a6 f3 bd 1c 77 01 3d fe 42 de 3c 28 b2 19 3d
       -0.1189692 0.031607732 0.027131554 0.03752342
0002c0 cc 0a 3c 3d 62 e4 9a 3b ef c4 31 3d a2 4f 99 3d
       0.045908734 0.0047269324 0.0434007 0.07485892
0002d0 0f d1 4c bd 11 24 7f 3d 0c 7f bd 3d 6e 27 c5 bb
       -0.05000406 0.062290255 0.09252748 -0.0060166633
0002e0 6f f7 b4 bc 5e 3d d0 3d 9d a8 5b 3d eb d9 c6 ba
       -0.022090642 0.10167955 0.0536276 -0.0015171146
0002f0 4b fd af bd ef fb e8 bc 9e f0 ba bd 16 7b 66 bd
       -0.08593234 -0.028440444 -0.09127925 -0.056269728
000300 8d 7f f7 bc f1 cc d0 bd 7e ff 94 3d ed 4d 8d bd
       -0.030212188 -0.101953395 0.07275294 -0.06899629
000310 81 f6 d1 bc 7e 0e 6e 3d 68 52 d6 bc 79 5a 31 bc
       -0.025630238 0.05811929 -0.026162341 -0.010824793
000320 1e b6 99 bd 2d bb 8c 3d 4c 81 d0 3c 54 43 af bd
       -0.07505439 0.068716384 0.025452279 -0.08557764
000330 17 a8 14 3e 33 f5 a6 3d 7e c9 e9 bd 69 80 c7 3c
       0.14517246 0.08152237 -0.11415385 0.024353223
000340 c3 f0 0b be fb 51 4b 3c 45 01 3b 3d c7 3f 52 bb
       -0.13666062 0.012409682 0.045655508 -0.0032081471
000350 23 c1 fc 3c 64 fe d0 bd dc 8a 19 3d ac 5e 63 bd
       0.030853814 -0.10204771 0.037485942 -0.055510208
000360 aa d7 bb 3d fc 89 92 bd 4a cf 1f bd 7c 22 31 3d
       0.09171994 -0.07155225 -0.039016046 0.043245777
000370 6f da 9f 3d 18 60 11 3d c6 f7 c0 3c ac f2 4a 3d
       0.07805335 0.035492033 0.023555648 0.049547836
000380 db c7 a4 3d 66 41 b6 bd 18 e6 6a 3d 03 24 b7 bc
       0.08045932 -0.088991925 0.05734834 -0.022356039
000390 50 d9 2c 3d 38 04 d6 3d 74 be e9 bc 3c 0e 8c 3d
       0.042199433 0.104500234 -0.028533198 0.068386525
0003a0 58 e4 b1 bd 1d fa 5f bd 4b 23 df 3d db 1f 17 3d
       -0.08686131 -0.054681886 0.108954035 0.036895614
0003b0 2a 65 af ba 14 48 d5 3d c8 a6 4e bd e6 3a 50 bc
       -0.001338159 0.104141384 -0.050452024 -0.012709355
0003c0 2c 0a a6 3d 3c 29 dc bc 2f f8 f3 3d 25 3b b3 3d
       0.08107409 -0.02687513 0.11912572 0.08751515
0003d0 4a 8f 95 bd 8a c1 2a bd f4 45 a3 3d 35 fa ae 3c
       -0.07302721 -0.04168848 0.07972327 0.021359542
0003e0 b6 d3 8e bd 1f 9e b7 3d c7 ca b8 3d 69 58 44 3c
       -0.069739744 0.08965706 0.09023052 0.011983969
0003f0 18 42 45 bd 63 48 d5 bc 9b 1d 65 3d 5b 15 54 bd
       -0.048158735 -0.026035493 0.055936437 -0.05177818

mlp2.2.bias f4 [50]
000000 0d 30 a8 bd 91 bf 9c bd 83 34 29 3d 2d 51 98 bc
       -0.0821229 -0.07653726 0.041309845 -0.018593395
000010 9f 30 a4 bd 6f a6 f5 3c 47 7e 71 bc ed 51 ef 3c
       -0.08017086 0.029986588 -0.0147395795 0.02921387
000020 9e 0b 8c bd 08 22 5b bd a1 bf 73 bd 1b eb 5e 3c
       -0.06838153 -0.05349925 -0.059508923 0.013605858
000030 94 c7 63 3b 89 98 05 bc 1b 10 02 3d 15 c3 e3 bd
       0.003475641 -0.008154043 0.03175364 -0.11121193
000040 54 dd 8e bd 58 58 65 bd 20 71 1a be 77 99 c9 3c
       -0.06975809 -0.055992454 -0.15082216 0.02460931
000050 26 34 b4 3d 88 ec 8a 3d ce e3 b5 bd d0 dd 06 3c
       0.08799009 0.06783396 -0.08881341 0.008231595
000060 f0 cc da 3d 76 ea 73 3c bb fc df ba d9 07 5c bc
       0.1068362 0.014887443 -0.0017088869 -0.013429605
000070 4f dd df 3d c0 53 e0 3d b5 14 85 3d 97 9a e8 bd
       0.10930883 0.10953474 0.0649809 -0.11357611
000080 5f c2 87 bd a8 ea a7 3d 8b 87 49 3d 35 11 33 3c
       -0.0662887 0.08199054 0.04920153 0.010929395
000090 21 6c 8d 3c 3a 88 ef bc 9c e7 6d bc 6e d3 06 bd
       0.017263474 -0.029239763 -0.014520552 -0.03291648
0000a0 73 18 ad bd f0 16 3d 3c 95 4b 27 bd ee 3a e7 3d
       -0.08451929 0.011541113 -0.040843565 0.11290537
0000b0 06 a0 ab bd ed 4a de 3c 68 a6 03 be 01 eb 66 3d
       -0.083801314 0.027135337 -0.12856448 0.05637646
0000c0 00 a6 fc 3c 91 78 ae 3c
       0.030840874 0.021297725

attention.0.weight f4 [100, 100]
000000 d8 26 97 bd 9d a2 89 bd 6b 4f 82 3d ff c3 85 bd
       -0.07380456 -0.06720469 0.06362804 -0.06531524
000010 df 29 85 3b e2 01 9e 3a 00 e4 cf 3c f9 34 70 bc
       0.0040638293 0.0012055004 0.025377274 -0.014661067
000020 b3 b7 8d 3c b5 2f 53 bd 1d c7 b5 3d ea 02 c2 bd
       0.017299509 -0.05155917 0.088758685 -0.09473212
000030 2b 00 04 bd 17 f4 ca bd 9c c7 9c 3b 73 6b 0c bd
       -0.032226723 -0.09909838 0.0047845375 -0.03428216
000040 11 67 9f bd 61 e1 cf 3c 72 4d 78 3c ce 7f 99 bd
       -0.0778333 0.025376024 0.015155183 -0.0749508
000050 a9 8d 91 3d 35 f1 6b 3d 38 4e 70 3d 15 4c 88 bd
       0.07107098 0.05760308 0.058668345 -0.066551365
000060 e0 5b 91 bb d1 22 47 bd 10 52 ab bd 4a 4d 7e 3d
       -0.004436001 -0.048617188 -0.083652616 0.062085427
000070 c3 18 3e bd 78 40 0e bd ba 7d 58 3d 03 1a 9b bd
       -0.046410333 -0.03472945 0.052854277 -0.07573321
000080 43 43 b6 3d 96 e8 d1 3c e1 a8 b3 3d a1 8d 84 bd
       0.08899548 0.0256236 0.087724455 -0.06472326
000090 25 d5 3e bd 99 13 7c bd 1b 53 87 ba 96 15 cf bc
       -0.04658999 -0.061542127 -0.001032445 -0.025278848
0000a0 9a 11 ac bd 1e 72 c6 3d 6f 53 94 bc 05 ef b6 3d
       -0.08401795 0.09689735 -0.01810619 0.08932308
0000b0 2f 0b b0 3d af 3a bc 3a 18 7a 7a 3d 42 3b 8a 3d
       0.08595883 0.0014360751 0.061151594 0.06749584
0000c0 16 53 bd 3d d3 11 7e bd e5 8b 59 bd 99 be b1 3d
       0.09244363 -0.062028717 -0.05311193 0.08678932
0000d0 c9 86 75 bd 1a 2d 0d bd 76 3a 1a bd 20 22 89 bd
       -0.059942994 -0.03446684 -0.03765341 -0.06695962
0000e0 0c 9d ad 3d fb 4d 22 3d 64 f7 59 3c 0a b3 7d bd
       0.0847722 0.03962515 0.013303611 -0.061938323
0000f0 52 d7 85 3d 8e 3f a5 bd db 44 35 3d e4 3f b1 3d
       0.0653521 -0.08068763 0.04425512 0.08654764
000100 53 ca 88 3d e4 2a 88 3d b0 61 6f 3d 98 7e 9f 3d
       0.06679215 0.06648806 0.05844277 0.07787818
000110 f2 c9 2b 3d e3 0e 98 3d 64 92 3c 3d 53 4d b1 3d
       0.041940637 0.074247144 0.046038046 0.086573265
000120 bc 20 a9 3c e6 43 af 3d 90 d6 33 bb 75 01 a6 3d
       0.020645492 0.085578725 -0.0027441122 0.08105747
000130 12 c1 1b 3d f3 85 c9 3d e6 07 98 bd ac 2d a5 bc
       0.038025923 0.09840002 -0.074233815 -0.02016338
000140 bb 56 b4 bd 02 80 8c bc d9 2e a8 bb 8c c0 c3 bd
       -0.08805605 -0.017150883 -0.005132538 -0.0955821
000150 8e ab ac bd b3 fa 63 bd 6b 81 bc bd a4 ab b3 3d
       -0.08431159 -0.055659007 -0.09204372 0.08772972
000160 c4 a6 c3 3d db 2c 93 bc 6e 68 a7 bd f7 0f c1 3d
       0.095532924 -0.017965725 -0.08174215 0.09426873
000170 a4 75 34 bc 07 03 35 bd 26 db fb 3a 9c 10 41 bd
       -0.011014376 -0.04419234 0.0019215092 -0.04713498
000180 e1 96 41 3d 07 e8 05 3d 82 bd 9d bd 57 88 cd bb
       0.04726303 0.03269198 -0.07702161 -0.0062723565
000190 a1 4b ab bd d2 e0 18 bd c2 92 b6 bd f4 45 a5 bd
       -0.083640344 -0.03732378 -0.089147106 -0.08069983
0001a0 b2 64 28 3c fe 13 9d bd 4a 22 82 bd 4e 20 0d 3d
       0.010277914 -0.07669829 -0.06354196 0.034454636
0001b0 9c 10 7e bd 64 10 5f bd 9c 63 a6 bd ca fe 54 3d
       -0.06202756 -0.05445899 -0.08124468 0.0520008
0001c0 b2 72 32 bd 69 c4 c3 bd 14 ef a0 ba 10 f0 e9 3c
       -0.043566413 -0.09558947 -0.0012278282 0.028556854
0001d0 bd 49 2e bd 72 a9 23 3d fc 3a c7 bd d0 70 61 bb
       -0.04255079 0.039956518 -0.09728047 -0.0034399517
0001e0 7d e1 28 bd 26 4c 8d 3d 67 6c a7 bd b9 5b d5 bb
       -0.041230667 0.0689929 -0.08174973 -0.0065111783
0001f0 f1 71 1b 3d 17 fb 0e 3b 1a 2a aa 3d 2f 83 02 bd
       0.03795046 0.0021817142 0.083088115 -0.031863388
000200 e2 a1 b7 bd c5 28 d0 bd 90 6f a9 3d d3 78 02 3d
       -0.089664236 -0.10164026 0.08273232 0.03185351
000210 83 b1 1a bd 9c f5 12 3d 27 6d 0f bd 7d 67 33 bd
       -0.037766945 0.035878763 -0.035016205 -0.043799866
000220 a2 4d 69 3d e3 76 8f bd e5 50 aa 3d b2 da 26 3d
       0.056958802 -0.07005098 0.08316211 0.040735908
000230 85 ed b0 bd de 5b b2 3d 30 61 9b bd 85 0a 44 bd
       -0.08639053 0.087089285 -0.075868964 -0.047861595
000240 a7 3d 8c bd 71 ef 2e bc f5 b7 3f bd 2e 30 69 bb
       -0.06847697 -0.0106772045 -0.046806294 -0.0035581696
000250 89 8d 15 3d b3 61 54 3d 81 7a a3 3d 84 be b9 bd
       0.03651193 0.051850986 0.0798235 -0.09069541
000260 36 00 8f bd e2 4e 97 bd a0 15 87 bd a5 9a b0 bc
       -0.06982462 -0.073880926 -0.065959215 -0.021558115
000270 21 4e ab bd fa e8 52 3d e9 3f 9e bb 27 5e 91 3c
       -0.08364511 0.051491715 -0.004829396 0.01774509
000280 ed 4b 38 bd 7b 2d 08 3d 07 98 6e bd 53 67 cc bd
       -0.044994283 0.0332465 -0.058250453 -0.09980645
000290 66 a8 9d bc d3 bf 04 3c d4 14 0b 3d 0d f6 e4 bc
       -0.019245338 0.008102375 0.03395541 -0.027949357
0002a0 cd c3 a7 3d 70 d1 1d bc f6 fb 35 3d eb 24 81 bc
       0.08191643 -0.009632453 0.04442974 -0.015764674
0002b0 84 e7 3c bd fa aa cc bd cb 91 8b bd 81 5a 8f b9
       -0.046119228 -0.09993549 -0.06814917 -0.00027342516
0002c0 14 7e 30 bd e6 40 ea bc 4e b9 88 bd 59 d6 ab 3c
       -0.043088987 -0.0285954 -0.06675969 0.020976232
0002d0 cb f8 a6 3d cb 3a 53 bc 6e a2 c1 bd 17 66 e7 bc
       0.08152922 -0.012892435 -0.09454809 -0.028246922
0002e0 34 15 ce bd 60 d2 c2 3d 1c 1e a1 3b 88 08 61 bd
       -0.10062638 0.09512782 0.0049169194 -0.054939777
0002f0 f7 ce 4d bd 1e fb c2 bd e9 25 76 bc ee 50 b4 bd
       -0.050246205 -0.09520553 -0.015023687 -0.088044986
000300 83 36 93 3d b3 13 db bc ef c9 45 3d ff eb b5 3d
       0.07188132 -0.026742792 0.048288282 0.08882903
000310 70 e6 52 3d c1 78 0c 3d 7f c1 5e 3d aa 0d 3b 3d
       0.051489294 0.034294847 0.05438375 0.045667328
000320 de a4 a4 3d 3e 4c bc bb 56 e9 1c 3d fa 76 c1 bd
       0.080392584 -0.0057463935 0.038308464 -0.09446521
000330 5a be 5c bc da 7e b1 bd a0 83 b4 bd fe d7 20 bd
       -0.013473118 -0.08666773 -0.08814168 -0.039268486
000340 f3 c4 8e bd 7a 57 53 bd 7b 4d c5 bd 80 6d a1 3d
       -0.06971159 -0.051597096 -0.09633919 0.078822136
000350 32 6b 40 bc c9 fb 53 bd 6a 02 73 3d 39 66 80 bc
       -0.011744307 -0.051753793 0.059328474 -0.015673744
000360 50 6e 89 bd d0 81 5b bd 63 f4 84 3d 07 82 62 3b
       -0.067104936 -0.053590596 0.064919256 0.0034562366
000370 31 bf 32 bd 9b f6 3e bd f8 aa 5a 3d f0 50 a4 bd
       -0.043639366 -0.0466219 0.053385705 -0.0802325
000380 20 71 b8 bd 1d 13 16 bc b0 81 60 3d 30 60 2c bd
       -0.09005952 -0.00915983 0.05481118 -0.04208392
000390 93 6a 2a 3d 14 bd bd bd 50 c4 0e bd cf cf ab 3c
       0.041605543 -0.092645794 -0.034855187 0.020973114
0003a0 14 ce ca 3c 46 ef ba 3d 30 bc 41 bd c4 c7 0e bd
       0.024756469 0.09127669 -0.04729861 -0.03485848
0003b0 09 c2 8f bd ff 3e 7c 3b 3e 0c 94 bb 65 49 71 bc
       -0.07019431 0.0038489697 -0.004518061 -0.014726971
0003c0 93 fe 34 bc f2 7b b6 3d c4 89 cd 3b 74 47 62 bd
       -0.011047023 0.089103594 0.0062725265 -0.055243924
0003d0 27 87 9f bc b6 35 b1 bd 95 85 f7 bc 28 d1 09 3c
       -0.019473625 -0.08652823 -0.030215064 0.008411683
0003e0 19 60 99 3a 81 30 67 bd f8 75 ee 3c 36 2e 92 3d
       0.0011701613 -0.05644274 0.029108986 0.0713772
0003f0 01 a1 af bd 95 b0 85 3d d0 bb a5 3d 15 74 e3 bc
       -0.08575631 0.06527821 0.08092463 -0.027765313

attention.0.bias f4 [100]
000000 bb c7 cf bd 3b 19 41 bd ac a7 c7 3c c6 0d d8 3b
       -0.101455174 -0.047143202 0.024371944 0.006593439
000010 02 8d b0 3d 59 85 20 3c 83 35 9a 3c 7f 5b 3c 3d
       0.08620645 0.009797418 0.018824345 0.045985695
000020 e7 51 82 bd d0 26 df 3c 87 28 04 3d 46 ea 1a bb
       -0.06363278 0.027240187 0.032265212 -0.0023638173
000030 9b ec 38 3d e2 07 ad 3d 5f a0 c3 3d 20 65 23 3d
       0.04514752 0.08448769 0.09552073 0.039891362
000040 ce 4a 8f bd d6 dd d3 3c 51 13 8e 3d 7c be cb bd
       -0.0699669 0.025862616 0.06937278 -0.099484414
000050 4d 3b 70 bd b0 b2 be bd cb 64 68 bb 96 41 78 3d
       -0.058650304 -0.09311426 -0.0035460468 0.060609423
000060 ab 33 32 3d 6c ed 64 bd eb 62 49 3d 2f e1 b5 3c
       0.043506306 -0.055890486 0.0491666 0.022202102
000070 b9 f3 34 bc 39 25 8b bd 7a d7 d2 bb 61 4e 5f 3d
       -0.011044436 -0.06794209 -0.006434378 0.054518107
000080 bf a8 32 3d 64 a0 b6 bd 4c 7d 9b 3d 44 ae b9 bd
       0.04361796 -0.08917311 0.07592258 -0.09066442
000090 c0 1d 36 3d 96 83 a1 3d 0b ee b2 bd 69 9c 20 3d
       0.044461966 0.07886426 -0.08736809 0.039211664
0000a0 21 ca 91 bd 00 26 f4 3b f2 d4 ab bd 5f 40 2e 3d
       -0.07118631 0.007450819 -0.083902255 0.042541858
0000b0 44 90 ad 3b 19 89 b4 bd 5a d3 bf 3d 17 f7 75 bc
       0.005296739 -0.08815212 0.09366484 -0.015012524
0000c0 5e b0 b3 3d d9 0e aa 3c b6 d2 9e 3d 21 2e 20 bd
       0.08773874 0.020759033 0.07755034 -0.039106492
0000d0 be 4b 3d 3d 83 c1 3a bc 85 45 cd 3d 53 5b 6d 3d
       0.04621481 -0.011398676 0.100230254 0.05794842
0000e0 fd da 23 bd e2 e5 c5 bd ff 64 0c 3b 22 d9 b2 3c
       -0.040003765 -0.09662987 0.0021422503 0.021832053
0000f0 ec 8d d2 3d ae bf 9d 3d 5a ef 58 3d 71 aa 49 39
       0.10280976 0.077025756 0.05296264 0.00019232348
000100 31 f1 a9 bb 4d 40 98 3d 70 b1 f5 bc f9 4c 9b bd
       -0.005186223 0.074341394 -0.029991835 -0.07583041
000110 cb 32 89 bd 61 af a8 bd 28 2e 83 bd 2f ee 9e 3d
       -0.06699141 -0.08236576 -0.06405288 0.07760274
000120 56 5a 3b 3d 66 e4 4a 3d f6 65 a6 bd c2 62 b3 3c
       0.045740448 0.049534224 -0.08124916 0.021897677
000130 00 96 87 3c fe 23 b3 bb cb 88 92 3d a8 37 c0 3d
       0.016551018 -0.005466937 0.071549974 0.093856156
000140 32 08 9a 3d 29 f7 94 bc 32 c7 a0 bd 16 e4 6d bd
       0.075210944 -0.018184261 -0.078504935 -0.058078848
000150 bc 8e e6 bd a3 12 9b bd 84 0f de 3c be cc ad bc
       -0.11257693 -0.07571914 0.027107008 -0.021215793
000160 d4 60 86 3d 4d 30 d7 3d 91 60 a4 3d 6c c9 8a bd
       0.06561437 0.105072595 0.08026231 -0.067766994
000170 67 95 9d bc 9b 66 a3 bd df 37 be 3d 49 74 aa 3c
       -0.01923628 -0.07978555 0.09288 0.020807402
000180 94 98 83 3d da c0 81 3c 35 f8 2f 3d 28 d1 e5 bc
       0.06425586 0.01583903 0.042961318 -0.028053835
